node {
  name: "global_step/Initializer/zeros"
  op: "Const"
  attr {
    key: "_class"
    value {
      list {
        s: "loc:@global_step"
      }
    }
  }
  attr {
    key: "_output_shapes"
    value {
      list {
        shape {
        }
      }
    }
  }
  attr {
    key: "dtype"
    value {
      type: DT_INT64
    }
  }
  attr {
    key: "value"
    value {
      tensor {
        dtype: DT_INT64
        tensor_shape {
        }
        int64_val: 0
      }
    }
  }
}
node {
  name: "global_step"
  op: "VariableV2"
  attr {
    key: "_class"
    value {
      list {
        s: "loc:@global_step"
      }
    }
  }
  attr {
    key: "_output_shapes"
    value {
      list {
        shape {
        }
      }
    }
  }
  attr {
    key: "container"
    value {
      s: ""
    }
  }
  attr {
    key: "dtype"
    value {
      type: DT_INT64
    }
  }
  attr {
    key: "shape"
    value {
      shape {
      }
    }
  }
  attr {
    key: "shared_name"
    value {
      s: ""
    }
  }
}
node {
  name: "global_step/Assign"
  op: "Assign"
  input: "global_step"
  input: "global_step/Initializer/zeros"
  attr {
    key: "T"
    value {
      type: DT_INT64
    }
  }
  attr {
    key: "_class"
    value {
      list {
        s: "loc:@global_step"
      }
    }
  }
  attr {
    key: "_output_shapes"
    value {
      list {
        shape {
        }
      }
    }
  }
  attr {
    key: "use_locking"
    value {
      b: true
    }
  }
  attr {
    key: "validate_shape"
    value {
      b: true
    }
  }
}
node {
  name: "global_step/read"
  op: "Identity"
  input: "global_step"
  attr {
    key: "T"
    value {
      type: DT_INT64
    }
  }
  attr {
    key: "_class"
    value {
      list {
        s: "loc:@global_step"
      }
    }
  }
  attr {
    key: "_output_shapes"
    value {
      list {
        shape {
        }
      }
    }
  }
}
node {
  name: "global_step/IsVariableInitialized"
  op: "IsVariableInitialized"
  input: "global_step"
  attr {
    key: "_class"
    value {
      list {
        s: "loc:@global_step"
      }
    }
  }
  attr {
    key: "_output_shapes"
    value {
      list {
        shape {
        }
      }
    }
  }
  attr {
    key: "dtype"
    value {
      type: DT_INT64
    }
  }
}
node {
  name: "global_step/cond/Switch"
  op: "Switch"
  input: "global_step/IsVariableInitialized"
  input: "global_step/IsVariableInitialized"
  attr {
    key: "T"
    value {
      type: DT_BOOL
    }
  }
  attr {
    key: "_output_shapes"
    value {
      list {
        shape {
        }
        shape {
        }
      }
    }
  }
}
node {
  name: "global_step/cond/switch_t"
  op: "Identity"
  input: "global_step/cond/Switch:1"
  attr {
    key: "T"
    value {
      type: DT_BOOL
    }
  }
  attr {
    key: "_output_shapes"
    value {
      list {
        shape {
        }
      }
    }
  }
}
node {
  name: "global_step/cond/switch_f"
  op: "Identity"
  input: "global_step/cond/Switch"
  attr {
    key: "T"
    value {
      type: DT_BOOL
    }
  }
  attr {
    key: "_output_shapes"
    value {
      list {
        shape {
        }
      }
    }
  }
}
node {
  name: "global_step/cond/pred_id"
  op: "Identity"
  input: "global_step/IsVariableInitialized"
  attr {
    key: "T"
    value {
      type: DT_BOOL
    }
  }
  attr {
    key: "_output_shapes"
    value {
      list {
        shape {
        }
      }
    }
  }
}
node {
  name: "global_step/cond/read"
  op: "Identity"
  input: "global_step/cond/read/Switch:1"
  attr {
    key: "T"
    value {
      type: DT_INT64
    }
  }
  attr {
    key: "_output_shapes"
    value {
      list {
        shape {
        }
      }
    }
  }
}
node {
  name: "global_step/cond/read/Switch"
  op: "RefSwitch"
  input: "global_step"
  input: "global_step/cond/pred_id"
  attr {
    key: "T"
    value {
      type: DT_INT64
    }
  }
  attr {
    key: "_class"
    value {
      list {
        s: "loc:@global_step"
      }
    }
  }
  attr {
    key: "_output_shapes"
    value {
      list {
        shape {
        }
        shape {
        }
      }
    }
  }
}
node {
  name: "global_step/cond/Switch_1"
  op: "Switch"
  input: "global_step/Initializer/zeros"
  input: "global_step/cond/pred_id"
  attr {
    key: "T"
    value {
      type: DT_INT64
    }
  }
  attr {
    key: "_class"
    value {
      list {
        s: "loc:@global_step"
      }
    }
  }
  attr {
    key: "_output_shapes"
    value {
      list {
        shape {
        }
        shape {
        }
      }
    }
  }
}
node {
  name: "global_step/cond/Merge"
  op: "Merge"
  input: "global_step/cond/Switch_1"
  input: "global_step/cond/read"
  attr {
    key: "N"
    value {
      i: 2
    }
  }
  attr {
    key: "T"
    value {
      type: DT_INT64
    }
  }
  attr {
    key: "_output_shapes"
    value {
      list {
        shape {
        }
        shape {
        }
      }
    }
  }
}
node {
  name: "global_step/add/y"
  op: "Const"
  attr {
    key: "_output_shapes"
    value {
      list {
        shape {
        }
      }
    }
  }
  attr {
    key: "dtype"
    value {
      type: DT_INT64
    }
  }
  attr {
    key: "value"
    value {
      tensor {
        dtype: DT_INT64
        tensor_shape {
        }
        int64_val: 0
      }
    }
  }
}
node {
  name: "global_step/add"
  op: "Add"
  input: "global_step/cond/Merge"
  input: "global_step/add/y"
  attr {
    key: "T"
    value {
      type: DT_INT64
    }
  }
  attr {
    key: "_output_shapes"
    value {
      list {
        shape {
        }
      }
    }
  }
}
node {
  name: "filenames"
  op: "Const"
  device: "/device:CPU:0"
  attr {
    key: "_output_shapes"
    value {
      list {
        shape {
        }
      }
    }
  }
  attr {
    key: "dtype"
    value {
      type: DT_STRING
    }
  }
  attr {
    key: "value"
    value {
      tensor {
        dtype: DT_STRING
        tensor_shape {
        }
        string_val: "c:\\\\_dev\\\\models\\\\official\\\\wide_deep_customer\\\\data\\\\cust.data"
      }
    }
  }
}
node {
  name: "compression_type"
  op: "Const"
  device: "/device:CPU:0"
  attr {
    key: "_output_shapes"
    value {
      list {
        shape {
        }
      }
    }
  }
  attr {
    key: "dtype"
    value {
      type: DT_STRING
    }
  }
  attr {
    key: "value"
    value {
      tensor {
        dtype: DT_STRING
        tensor_shape {
        }
        string_val: ""
      }
    }
  }
}
node {
  name: "buffer_size"
  op: "Const"
  device: "/device:CPU:0"
  attr {
    key: "_output_shapes"
    value {
      list {
        shape {
        }
      }
    }
  }
  attr {
    key: "dtype"
    value {
      type: DT_INT64
    }
  }
  attr {
    key: "value"
    value {
      tensor {
        dtype: DT_INT64
        tensor_shape {
        }
        int64_val: 262144
      }
    }
  }
}
node {
  name: "buffer_size_1"
  op: "Const"
  device: "/device:CPU:0"
  attr {
    key: "_output_shapes"
    value {
      list {
        shape {
        }
      }
    }
  }
  attr {
    key: "dtype"
    value {
      type: DT_INT64
    }
  }
  attr {
    key: "value"
    value {
      tensor {
        dtype: DT_INT64
        tensor_shape {
        }
        int64_val: 32561
      }
    }
  }
}
node {
  name: "seed"
  op: "Const"
  device: "/device:CPU:0"
  attr {
    key: "_output_shapes"
    value {
      list {
        shape {
        }
      }
    }
  }
  attr {
    key: "dtype"
    value {
      type: DT_INT64
    }
  }
  attr {
    key: "value"
    value {
      tensor {
        dtype: DT_INT64
        tensor_shape {
        }
        int64_val: 0
      }
    }
  }
}
node {
  name: "seed2"
  op: "Const"
  device: "/device:CPU:0"
  attr {
    key: "_output_shapes"
    value {
      list {
        shape {
        }
      }
    }
  }
  attr {
    key: "dtype"
    value {
      type: DT_INT64
    }
  }
  attr {
    key: "value"
    value {
      tensor {
        dtype: DT_INT64
        tensor_shape {
        }
        int64_val: 0
      }
    }
  }
}
node {
  name: "num_parallel_calls"
  op: "Const"
  device: "/device:CPU:0"
  attr {
    key: "_output_shapes"
    value {
      list {
        shape {
        }
      }
    }
  }
  attr {
    key: "dtype"
    value {
      type: DT_INT32
    }
  }
  attr {
    key: "value"
    value {
      tensor {
        dtype: DT_INT32
        tensor_shape {
        }
        int_val: 5
      }
    }
  }
}
node {
  name: "count"
  op: "Const"
  device: "/device:CPU:0"
  attr {
    key: "_output_shapes"
    value {
      list {
        shape {
        }
      }
    }
  }
  attr {
    key: "dtype"
    value {
      type: DT_INT64
    }
  }
  attr {
    key: "value"
    value {
      tensor {
        dtype: DT_INT64
        tensor_shape {
        }
        int64_val: 2
      }
    }
  }
}
node {
  name: "batch_size"
  op: "Const"
  device: "/device:CPU:0"
  attr {
    key: "_output_shapes"
    value {
      list {
        shape {
        }
      }
    }
  }
  attr {
    key: "dtype"
    value {
      type: DT_INT64
    }
  }
  attr {
    key: "value"
    value {
      tensor {
        dtype: DT_INT64
        tensor_shape {
        }
        int64_val: 40
      }
    }
  }
}
node {
  name: "OneShotIterator"
  op: "OneShotIterator"
  device: "/device:CPU:0"
  attr {
    key: "_output_shapes"
    value {
      list {
        shape {
        }
      }
    }
  }
  attr {
    key: "container"
    value {
      s: ""
    }
  }
  attr {
    key: "dataset_factory"
    value {
      func {
        name: "_make_dataset_6e7d17be"
      }
    }
  }
  attr {
    key: "output_shapes"
    value {
      list {
        shape {
          dim {
            size: -1
          }
        }
        shape {
          dim {
            size: -1
          }
        }
        shape {
          dim {
            size: -1
          }
        }
        shape {
          dim {
            size: -1
          }
        }
        shape {
          dim {
            size: -1
          }
        }
        shape {
          dim {
            size: -1
          }
        }
        shape {
          dim {
            size: -1
          }
        }
        shape {
          dim {
            size: -1
          }
        }
        shape {
          dim {
            size: -1
          }
        }
        shape {
          dim {
            size: -1
          }
        }
        shape {
          dim {
            size: -1
          }
        }
        shape {
          dim {
            size: -1
          }
        }
        shape {
          dim {
            size: -1
          }
        }
        shape {
          dim {
            size: -1
          }
        }
        shape {
          dim {
            size: -1
          }
        }
        shape {
          dim {
            size: -1
          }
        }
        shape {
          dim {
            size: -1
          }
        }
        shape {
          dim {
            size: -1
          }
        }
        shape {
          dim {
            size: -1
          }
        }
        shape {
          dim {
            size: -1
          }
        }
        shape {
          dim {
            size: -1
          }
        }
        shape {
          dim {
            size: -1
          }
        }
      }
    }
  }
  attr {
    key: "output_types"
    value {
      list {
        type: DT_STRING
        type: DT_INT32
        type: DT_INT32
        type: DT_STRING
        type: DT_STRING
        type: DT_STRING
        type: DT_INT32
        type: DT_INT32
        type: DT_STRING
        type: DT_INT32
        type: DT_INT32
        type: DT_INT32
        type: DT_STRING
        type: DT_STRING
        type: DT_STRING
        type: DT_INT32
        type: DT_STRING
        type: DT_INT32
        type: DT_STRING
        type: DT_INT32
        type: DT_INT32
        type: DT_BOOL
      }
    }
  }
  attr {
    key: "shared_name"
    value {
      s: ""
    }
  }
}
node {
  name: "IteratorToStringHandle"
  op: "IteratorToStringHandle"
  input: "OneShotIterator"
  device: "/device:CPU:0"
  attr {
    key: "_output_shapes"
    value {
      list {
        shape {
        }
      }
    }
  }
}
node {
  name: "IteratorGetNext"
  op: "IteratorGetNext"
  input: "OneShotIterator"
  device: "/device:CPU:0"
  attr {
    key: "_output_shapes"
    value {
      list {
        shape {
          dim {
            size: -1
          }
        }
        shape {
          dim {
            size: -1
          }
        }
        shape {
          dim {
            size: -1
          }
        }
        shape {
          dim {
            size: -1
          }
        }
        shape {
          dim {
            size: -1
          }
        }
        shape {
          dim {
            size: -1
          }
        }
        shape {
          dim {
            size: -1
          }
        }
        shape {
          dim {
            size: -1
          }
        }
        shape {
          dim {
            size: -1
          }
        }
        shape {
          dim {
            size: -1
          }
        }
        shape {
          dim {
            size: -1
          }
        }
        shape {
          dim {
            size: -1
          }
        }
        shape {
          dim {
            size: -1
          }
        }
        shape {
          dim {
            size: -1
          }
        }
        shape {
          dim {
            size: -1
          }
        }
        shape {
          dim {
            size: -1
          }
        }
        shape {
          dim {
            size: -1
          }
        }
        shape {
          dim {
            size: -1
          }
        }
        shape {
          dim {
            size: -1
          }
        }
        shape {
          dim {
            size: -1
          }
        }
        shape {
          dim {
            size: -1
          }
        }
        shape {
          dim {
            size: -1
          }
        }
      }
    }
  }
  attr {
    key: "output_shapes"
    value {
      list {
        shape {
          dim {
            size: -1
          }
        }
        shape {
          dim {
            size: -1
          }
        }
        shape {
          dim {
            size: -1
          }
        }
        shape {
          dim {
            size: -1
          }
        }
        shape {
          dim {
            size: -1
          }
        }
        shape {
          dim {
            size: -1
          }
        }
        shape {
          dim {
            size: -1
          }
        }
        shape {
          dim {
            size: -1
          }
        }
        shape {
          dim {
            size: -1
          }
        }
        shape {
          dim {
            size: -1
          }
        }
        shape {
          dim {
            size: -1
          }
        }
        shape {
          dim {
            size: -1
          }
        }
        shape {
          dim {
            size: -1
          }
        }
        shape {
          dim {
            size: -1
          }
        }
        shape {
          dim {
            size: -1
          }
        }
        shape {
          dim {
            size: -1
          }
        }
        shape {
          dim {
            size: -1
          }
        }
        shape {
          dim {
            size: -1
          }
        }
        shape {
          dim {
            size: -1
          }
        }
        shape {
          dim {
            size: -1
          }
        }
        shape {
          dim {
            size: -1
          }
        }
        shape {
          dim {
            size: -1
          }
        }
      }
    }
  }
  attr {
    key: "output_types"
    value {
      list {
        type: DT_STRING
        type: DT_INT32
        type: DT_INT32
        type: DT_STRING
        type: DT_STRING
        type: DT_STRING
        type: DT_INT32
        type: DT_INT32
        type: DT_STRING
        type: DT_INT32
        type: DT_INT32
        type: DT_INT32
        type: DT_STRING
        type: DT_STRING
        type: DT_STRING
        type: DT_INT32
        type: DT_STRING
        type: DT_INT32
        type: DT_STRING
        type: DT_INT32
        type: DT_INT32
        type: DT_BOOL
      }
    }
  }
}
node {
  name: "dnn/input_from_feature_columns/input_layer/abc_indicator/ExpandDims/dim"
  op: "Const"
  attr {
    key: "_output_shapes"
    value {
      list {
        shape {
        }
      }
    }
  }
  attr {
    key: "dtype"
    value {
      type: DT_INT32
    }
  }
  attr {
    key: "value"
    value {
      tensor {
        dtype: DT_INT32
        tensor_shape {
        }
        int_val: -1
      }
    }
  }
}
node {
  name: "dnn/input_from_feature_columns/input_layer/abc_indicator/ExpandDims"
  op: "ExpandDims"
  input: "IteratorGetNext"
  input: "dnn/input_from_feature_columns/input_layer/abc_indicator/ExpandDims/dim"
  attr {
    key: "T"
    value {
      type: DT_STRING
    }
  }
  attr {
    key: "Tdim"
    value {
      type: DT_INT32
    }
  }
  attr {
    key: "_output_shapes"
    value {
      list {
        shape {
          dim {
            size: -1
          }
          dim {
            size: 1
          }
        }
      }
    }
  }
}
node {
  name: "dnn/input_from_feature_columns/input_layer/abc_indicator/to_sparse_input/ignore_value/x"
  op: "Const"
  attr {
    key: "_output_shapes"
    value {
      list {
        shape {
        }
      }
    }
  }
  attr {
    key: "dtype"
    value {
      type: DT_STRING
    }
  }
  attr {
    key: "value"
    value {
      tensor {
        dtype: DT_STRING
        tensor_shape {
        }
        string_val: ""
      }
    }
  }
}
node {
  name: "dnn/input_from_feature_columns/input_layer/abc_indicator/to_sparse_input/NotEqual"
  op: "NotEqual"
  input: "dnn/input_from_feature_columns/input_layer/abc_indicator/ExpandDims"
  input: "dnn/input_from_feature_columns/input_layer/abc_indicator/to_sparse_input/ignore_value/x"
  attr {
    key: "T"
    value {
      type: DT_STRING
    }
  }
  attr {
    key: "_output_shapes"
    value {
      list {
        shape {
          dim {
            size: -1
          }
          dim {
            size: 1
          }
        }
      }
    }
  }
}
node {
  name: "dnn/input_from_feature_columns/input_layer/abc_indicator/to_sparse_input/indices"
  op: "Where"
  input: "dnn/input_from_feature_columns/input_layer/abc_indicator/to_sparse_input/NotEqual"
  attr {
    key: "T"
    value {
      type: DT_BOOL
    }
  }
  attr {
    key: "_output_shapes"
    value {
      list {
        shape {
          dim {
            size: -1
          }
          dim {
            size: 2
          }
        }
      }
    }
  }
}
node {
  name: "dnn/input_from_feature_columns/input_layer/abc_indicator/to_sparse_input/values"
  op: "GatherNd"
  input: "dnn/input_from_feature_columns/input_layer/abc_indicator/ExpandDims"
  input: "dnn/input_from_feature_columns/input_layer/abc_indicator/to_sparse_input/indices"
  attr {
    key: "Tindices"
    value {
      type: DT_INT64
    }
  }
  attr {
    key: "Tparams"
    value {
      type: DT_STRING
    }
  }
  attr {
    key: "_output_shapes"
    value {
      list {
        shape {
          dim {
            size: -1
          }
        }
      }
    }
  }
}
node {
  name: "dnn/input_from_feature_columns/input_layer/abc_indicator/to_sparse_input/dense_shape"
  op: "Shape"
  input: "dnn/input_from_feature_columns/input_layer/abc_indicator/ExpandDims"
  attr {
    key: "T"
    value {
      type: DT_STRING
    }
  }
  attr {
    key: "_output_shapes"
    value {
      list {
        shape {
          dim {
            size: 2
          }
        }
      }
    }
  }
  attr {
    key: "out_type"
    value {
      type: DT_INT64
    }
  }
}
node {
  name: "dnn/input_from_feature_columns/input_layer/abc_indicator/abc_lookup/Const"
  op: "Const"
  attr {
    key: "_output_shapes"
    value {
      list {
        shape {
          dim {
            size: 3
          }
        }
      }
    }
  }
  attr {
    key: "dtype"
    value {
      type: DT_STRING
    }
  }
  attr {
    key: "value"
    value {
      tensor {
        dtype: DT_STRING
        tensor_shape {
          dim {
            size: 3
          }
        }
        string_val: "a"
        string_val: "b"
        string_val: "c"
      }
    }
  }
}
node {
  name: "dnn/input_from_feature_columns/input_layer/abc_indicator/abc_lookup/Size"
  op: "Const"
  attr {
    key: "_output_shapes"
    value {
      list {
        shape {
        }
      }
    }
  }
  attr {
    key: "dtype"
    value {
      type: DT_INT32
    }
  }
  attr {
    key: "value"
    value {
      tensor {
        dtype: DT_INT32
        tensor_shape {
        }
        int_val: 3
      }
    }
  }
}
node {
  name: "dnn/input_from_feature_columns/input_layer/abc_indicator/abc_lookup/range/start"
  op: "Const"
  attr {
    key: "_output_shapes"
    value {
      list {
        shape {
        }
      }
    }
  }
  attr {
    key: "dtype"
    value {
      type: DT_INT32
    }
  }
  attr {
    key: "value"
    value {
      tensor {
        dtype: DT_INT32
        tensor_shape {
        }
        int_val: 0
      }
    }
  }
}
node {
  name: "dnn/input_from_feature_columns/input_layer/abc_indicator/abc_lookup/range/delta"
  op: "Const"
  attr {
    key: "_output_shapes"
    value {
      list {
        shape {
        }
      }
    }
  }
  attr {
    key: "dtype"
    value {
      type: DT_INT32
    }
  }
  attr {
    key: "value"
    value {
      tensor {
        dtype: DT_INT32
        tensor_shape {
        }
        int_val: 1
      }
    }
  }
}
node {
  name: "dnn/input_from_feature_columns/input_layer/abc_indicator/abc_lookup/range"
  op: "Range"
  input: "dnn/input_from_feature_columns/input_layer/abc_indicator/abc_lookup/range/start"
  input: "dnn/input_from_feature_columns/input_layer/abc_indicator/abc_lookup/Size"
  input: "dnn/input_from_feature_columns/input_layer/abc_indicator/abc_lookup/range/delta"
  attr {
    key: "Tidx"
    value {
      type: DT_INT32
    }
  }
  attr {
    key: "_output_shapes"
    value {
      list {
        shape {
          dim {
            size: 3
          }
        }
      }
    }
  }
}
node {
  name: "dnn/input_from_feature_columns/input_layer/abc_indicator/abc_lookup/ToInt64"
  op: "Cast"
  input: "dnn/input_from_feature_columns/input_layer/abc_indicator/abc_lookup/range"
  attr {
    key: "DstT"
    value {
      type: DT_INT64
    }
  }
  attr {
    key: "SrcT"
    value {
      type: DT_INT32
    }
  }
  attr {
    key: "_output_shapes"
    value {
      list {
        shape {
          dim {
            size: 3
          }
        }
      }
    }
  }
}
node {
  name: "dnn/input_from_feature_columns/input_layer/abc_indicator/abc_lookup/hash_table"
  op: "HashTableV2"
  attr {
    key: "_output_shapes"
    value {
      list {
        shape {
        }
      }
    }
  }
  attr {
    key: "container"
    value {
      s: ""
    }
  }
  attr {
    key: "key_dtype"
    value {
      type: DT_STRING
    }
  }
  attr {
    key: "shared_name"
    value {
      s: ""
    }
  }
  attr {
    key: "use_node_name_sharing"
    value {
      b: false
    }
  }
  attr {
    key: "value_dtype"
    value {
      type: DT_INT64
    }
  }
}
node {
  name: "dnn/input_from_feature_columns/input_layer/abc_indicator/abc_lookup/hash_table/Const"
  op: "Const"
  attr {
    key: "_output_shapes"
    value {
      list {
        shape {
        }
      }
    }
  }
  attr {
    key: "dtype"
    value {
      type: DT_INT64
    }
  }
  attr {
    key: "value"
    value {
      tensor {
        dtype: DT_INT64
        tensor_shape {
        }
        int64_val: -1
      }
    }
  }
}
node {
  name: "dnn/input_from_feature_columns/input_layer/abc_indicator/abc_lookup/hash_table/table_init"
  op: "InitializeTableV2"
  input: "dnn/input_from_feature_columns/input_layer/abc_indicator/abc_lookup/hash_table"
  input: "dnn/input_from_feature_columns/input_layer/abc_indicator/abc_lookup/Const"
  input: "dnn/input_from_feature_columns/input_layer/abc_indicator/abc_lookup/ToInt64"
  attr {
    key: "Tkey"
    value {
      type: DT_STRING
    }
  }
  attr {
    key: "Tval"
    value {
      type: DT_INT64
    }
  }
}
node {
  name: "dnn/input_from_feature_columns/input_layer/abc_indicator/hash_table_Lookup"
  op: "LookupTableFindV2"
  input: "dnn/input_from_feature_columns/input_layer/abc_indicator/abc_lookup/hash_table"
  input: "dnn/input_from_feature_columns/input_layer/abc_indicator/to_sparse_input/values"
  input: "dnn/input_from_feature_columns/input_layer/abc_indicator/abc_lookup/hash_table/Const"
  attr {
    key: "Tin"
    value {
      type: DT_STRING
    }
  }
  attr {
    key: "Tout"
    value {
      type: DT_INT64
    }
  }
  attr {
    key: "_output_shapes"
    value {
      list {
        shape {
          dim {
            size: -1
          }
        }
      }
    }
  }
}
node {
  name: "dnn/input_from_feature_columns/input_layer/abc_indicator/SparseToDense/default_value"
  op: "Const"
  attr {
    key: "_output_shapes"
    value {
      list {
        shape {
        }
      }
    }
  }
  attr {
    key: "dtype"
    value {
      type: DT_INT64
    }
  }
  attr {
    key: "value"
    value {
      tensor {
        dtype: DT_INT64
        tensor_shape {
        }
        int64_val: -1
      }
    }
  }
}
node {
  name: "dnn/input_from_feature_columns/input_layer/abc_indicator/SparseToDense"
  op: "SparseToDense"
  input: "dnn/input_from_feature_columns/input_layer/abc_indicator/to_sparse_input/indices"
  input: "dnn/input_from_feature_columns/input_layer/abc_indicator/to_sparse_input/dense_shape"
  input: "dnn/input_from_feature_columns/input_layer/abc_indicator/hash_table_Lookup"
  input: "dnn/input_from_feature_columns/input_layer/abc_indicator/SparseToDense/default_value"
  attr {
    key: "T"
    value {
      type: DT_INT64
    }
  }
  attr {
    key: "Tindices"
    value {
      type: DT_INT64
    }
  }
  attr {
    key: "_output_shapes"
    value {
      list {
        shape {
          dim {
            size: -1
          }
          dim {
            size: 1
          }
        }
      }
    }
  }
  attr {
    key: "validate_indices"
    value {
      b: true
    }
  }
}
node {
  name: "dnn/input_from_feature_columns/input_layer/abc_indicator/one_hot/Const"
  op: "Const"
  attr {
    key: "_output_shapes"
    value {
      list {
        shape {
        }
      }
    }
  }
  attr {
    key: "dtype"
    value {
      type: DT_FLOAT
    }
  }
  attr {
    key: "value"
    value {
      tensor {
        dtype: DT_FLOAT
        tensor_shape {
        }
        float_val: 1.0
      }
    }
  }
}
node {
  name: "dnn/input_from_feature_columns/input_layer/abc_indicator/one_hot/Const_1"
  op: "Const"
  attr {
    key: "_output_shapes"
    value {
      list {
        shape {
        }
      }
    }
  }
  attr {
    key: "dtype"
    value {
      type: DT_FLOAT
    }
  }
  attr {
    key: "value"
    value {
      tensor {
        dtype: DT_FLOAT
        tensor_shape {
        }
        float_val: 0.0
      }
    }
  }
}
node {
  name: "dnn/input_from_feature_columns/input_layer/abc_indicator/one_hot/depth"
  op: "Const"
  attr {
    key: "_output_shapes"
    value {
      list {
        shape {
        }
      }
    }
  }
  attr {
    key: "dtype"
    value {
      type: DT_INT32
    }
  }
  attr {
    key: "value"
    value {
      tensor {
        dtype: DT_INT32
        tensor_shape {
        }
        int_val: 3
      }
    }
  }
}
node {
  name: "dnn/input_from_feature_columns/input_layer/abc_indicator/one_hot/on_value"
  op: "Const"
  attr {
    key: "_output_shapes"
    value {
      list {
        shape {
        }
      }
    }
  }
  attr {
    key: "dtype"
    value {
      type: DT_FLOAT
    }
  }
  attr {
    key: "value"
    value {
      tensor {
        dtype: DT_FLOAT
        tensor_shape {
        }
        float_val: 1.0
      }
    }
  }
}
node {
  name: "dnn/input_from_feature_columns/input_layer/abc_indicator/one_hot/off_value"
  op: "Const"
  attr {
    key: "_output_shapes"
    value {
      list {
        shape {
        }
      }
    }
  }
  attr {
    key: "dtype"
    value {
      type: DT_FLOAT
    }
  }
  attr {
    key: "value"
    value {
      tensor {
        dtype: DT_FLOAT
        tensor_shape {
        }
        float_val: 0.0
      }
    }
  }
}
node {
  name: "dnn/input_from_feature_columns/input_layer/abc_indicator/one_hot"
  op: "OneHot"
  input: "dnn/input_from_feature_columns/input_layer/abc_indicator/SparseToDense"
  input: "dnn/input_from_feature_columns/input_layer/abc_indicator/one_hot/depth"
  input: "dnn/input_from_feature_columns/input_layer/abc_indicator/one_hot/on_value"
  input: "dnn/input_from_feature_columns/input_layer/abc_indicator/one_hot/off_value"
  attr {
    key: "T"
    value {
      type: DT_FLOAT
    }
  }
  attr {
    key: "TI"
    value {
      type: DT_INT64
    }
  }
  attr {
    key: "_output_shapes"
    value {
      list {
        shape {
          dim {
            size: -1
          }
          dim {
            size: 1
          }
          dim {
            size: 3
          }
        }
      }
    }
  }
  attr {
    key: "axis"
    value {
      i: -1
    }
  }
}
node {
  name: "dnn/input_from_feature_columns/input_layer/abc_indicator/Sum/reduction_indices"
  op: "Const"
  attr {
    key: "_output_shapes"
    value {
      list {
        shape {
          dim {
            size: 1
          }
        }
      }
    }
  }
  attr {
    key: "dtype"
    value {
      type: DT_INT32
    }
  }
  attr {
    key: "value"
    value {
      tensor {
        dtype: DT_INT32
        tensor_shape {
          dim {
            size: 1
          }
        }
        int_val: -2
      }
    }
  }
}
node {
  name: "dnn/input_from_feature_columns/input_layer/abc_indicator/Sum"
  op: "Sum"
  input: "dnn/input_from_feature_columns/input_layer/abc_indicator/one_hot"
  input: "dnn/input_from_feature_columns/input_layer/abc_indicator/Sum/reduction_indices"
  attr {
    key: "T"
    value {
      type: DT_FLOAT
    }
  }
  attr {
    key: "Tidx"
    value {
      type: DT_INT32
    }
  }
  attr {
    key: "_output_shapes"
    value {
      list {
        shape {
          dim {
            size: -1
          }
          dim {
            size: 3
          }
        }
      }
    }
  }
  attr {
    key: "keep_dims"
    value {
      b: false
    }
  }
}
node {
  name: "dnn/input_from_feature_columns/input_layer/abc_indicator/Shape"
  op: "Shape"
  input: "dnn/input_from_feature_columns/input_layer/abc_indicator/Sum"
  attr {
    key: "T"
    value {
      type: DT_FLOAT
    }
  }
  attr {
    key: "_output_shapes"
    value {
      list {
        shape {
          dim {
            size: 2
          }
        }
      }
    }
  }
  attr {
    key: "out_type"
    value {
      type: DT_INT32
    }
  }
}
node {
  name: "dnn/input_from_feature_columns/input_layer/abc_indicator/strided_slice/stack"
  op: "Const"
  attr {
    key: "_output_shapes"
    value {
      list {
        shape {
          dim {
            size: 1
          }
        }
      }
    }
  }
  attr {
    key: "dtype"
    value {
      type: DT_INT32
    }
  }
  attr {
    key: "value"
    value {
      tensor {
        dtype: DT_INT32
        tensor_shape {
          dim {
            size: 1
          }
        }
        int_val: 0
      }
    }
  }
}
node {
  name: "dnn/input_from_feature_columns/input_layer/abc_indicator/strided_slice/stack_1"
  op: "Const"
  attr {
    key: "_output_shapes"
    value {
      list {
        shape {
          dim {
            size: 1
          }
        }
      }
    }
  }
  attr {
    key: "dtype"
    value {
      type: DT_INT32
    }
  }
  attr {
    key: "value"
    value {
      tensor {
        dtype: DT_INT32
        tensor_shape {
          dim {
            size: 1
          }
        }
        int_val: 1
      }
    }
  }
}
node {
  name: "dnn/input_from_feature_columns/input_layer/abc_indicator/strided_slice/stack_2"
  op: "Const"
  attr {
    key: "_output_shapes"
    value {
      list {
        shape {
          dim {
            size: 1
          }
        }
      }
    }
  }
  attr {
    key: "dtype"
    value {
      type: DT_INT32
    }
  }
  attr {
    key: "value"
    value {
      tensor {
        dtype: DT_INT32
        tensor_shape {
          dim {
            size: 1
          }
        }
        int_val: 1
      }
    }
  }
}
node {
  name: "dnn/input_from_feature_columns/input_layer/abc_indicator/strided_slice"
  op: "StridedSlice"
  input: "dnn/input_from_feature_columns/input_layer/abc_indicator/Shape"
  input: "dnn/input_from_feature_columns/input_layer/abc_indicator/strided_slice/stack"
  input: "dnn/input_from_feature_columns/input_layer/abc_indicator/strided_slice/stack_1"
  input: "dnn/input_from_feature_columns/input_layer/abc_indicator/strided_slice/stack_2"
  attr {
    key: "Index"
    value {
      type: DT_INT32
    }
  }
  attr {
    key: "T"
    value {
      type: DT_INT32
    }
  }
  attr {
    key: "_output_shapes"
    value {
      list {
        shape {
        }
      }
    }
  }
  attr {
    key: "begin_mask"
    value {
      i: 0
    }
  }
  attr {
    key: "ellipsis_mask"
    value {
      i: 0
    }
  }
  attr {
    key: "end_mask"
    value {
      i: 0
    }
  }
  attr {
    key: "new_axis_mask"
    value {
      i: 0
    }
  }
  attr {
    key: "shrink_axis_mask"
    value {
      i: 1
    }
  }
}
node {
  name: "dnn/input_from_feature_columns/input_layer/abc_indicator/Reshape/shape/1"
  op: "Const"
  attr {
    key: "_output_shapes"
    value {
      list {
        shape {
        }
      }
    }
  }
  attr {
    key: "dtype"
    value {
      type: DT_INT32
    }
  }
  attr {
    key: "value"
    value {
      tensor {
        dtype: DT_INT32
        tensor_shape {
        }
        int_val: 3
      }
    }
  }
}
node {
  name: "dnn/input_from_feature_columns/input_layer/abc_indicator/Reshape/shape"
  op: "Pack"
  input: "dnn/input_from_feature_columns/input_layer/abc_indicator/strided_slice"
  input: "dnn/input_from_feature_columns/input_layer/abc_indicator/Reshape/shape/1"
  attr {
    key: "N"
    value {
      i: 2
    }
  }
  attr {
    key: "T"
    value {
      type: DT_INT32
    }
  }
  attr {
    key: "_output_shapes"
    value {
      list {
        shape {
          dim {
            size: 2
          }
        }
      }
    }
  }
  attr {
    key: "axis"
    value {
      i: 0
    }
  }
}
node {
  name: "dnn/input_from_feature_columns/input_layer/abc_indicator/Reshape"
  op: "Reshape"
  input: "dnn/input_from_feature_columns/input_layer/abc_indicator/Sum"
  input: "dnn/input_from_feature_columns/input_layer/abc_indicator/Reshape/shape"
  attr {
    key: "T"
    value {
      type: DT_FLOAT
    }
  }
  attr {
    key: "Tshape"
    value {
      type: DT_INT32
    }
  }
  attr {
    key: "_output_shapes"
    value {
      list {
        shape {
          dim {
            size: -1
          }
          dim {
            size: 3
          }
        }
      }
    }
  }
}
node {
  name: "dnn/input_from_feature_columns/input_layer/budget_spend/ExpandDims/dim"
  op: "Const"
  attr {
    key: "_output_shapes"
    value {
      list {
        shape {
        }
      }
    }
  }
  attr {
    key: "dtype"
    value {
      type: DT_INT32
    }
  }
  attr {
    key: "value"
    value {
      tensor {
        dtype: DT_INT32
        tensor_shape {
        }
        int_val: -1
      }
    }
  }
}
node {
  name: "dnn/input_from_feature_columns/input_layer/budget_spend/ExpandDims"
  op: "ExpandDims"
  input: "IteratorGetNext:2"
  input: "dnn/input_from_feature_columns/input_layer/budget_spend/ExpandDims/dim"
  attr {
    key: "T"
    value {
      type: DT_INT32
    }
  }
  attr {
    key: "Tdim"
    value {
      type: DT_INT32
    }
  }
  attr {
    key: "_output_shapes"
    value {
      list {
        shape {
          dim {
            size: -1
          }
          dim {
            size: 1
          }
        }
      }
    }
  }
}
node {
  name: "dnn/input_from_feature_columns/input_layer/budget_spend/ToFloat"
  op: "Cast"
  input: "dnn/input_from_feature_columns/input_layer/budget_spend/ExpandDims"
  attr {
    key: "DstT"
    value {
      type: DT_FLOAT
    }
  }
  attr {
    key: "SrcT"
    value {
      type: DT_INT32
    }
  }
  attr {
    key: "_output_shapes"
    value {
      list {
        shape {
          dim {
            size: -1
          }
          dim {
            size: 1
          }
        }
      }
    }
  }
}
node {
  name: "dnn/input_from_feature_columns/input_layer/budget_spend/Shape"
  op: "Shape"
  input: "dnn/input_from_feature_columns/input_layer/budget_spend/ToFloat"
  attr {
    key: "T"
    value {
      type: DT_FLOAT
    }
  }
  attr {
    key: "_output_shapes"
    value {
      list {
        shape {
          dim {
            size: 2
          }
        }
      }
    }
  }
  attr {
    key: "out_type"
    value {
      type: DT_INT32
    }
  }
}
node {
  name: "dnn/input_from_feature_columns/input_layer/budget_spend/strided_slice/stack"
  op: "Const"
  attr {
    key: "_output_shapes"
    value {
      list {
        shape {
          dim {
            size: 1
          }
        }
      }
    }
  }
  attr {
    key: "dtype"
    value {
      type: DT_INT32
    }
  }
  attr {
    key: "value"
    value {
      tensor {
        dtype: DT_INT32
        tensor_shape {
          dim {
            size: 1
          }
        }
        int_val: 0
      }
    }
  }
}
node {
  name: "dnn/input_from_feature_columns/input_layer/budget_spend/strided_slice/stack_1"
  op: "Const"
  attr {
    key: "_output_shapes"
    value {
      list {
        shape {
          dim {
            size: 1
          }
        }
      }
    }
  }
  attr {
    key: "dtype"
    value {
      type: DT_INT32
    }
  }
  attr {
    key: "value"
    value {
      tensor {
        dtype: DT_INT32
        tensor_shape {
          dim {
            size: 1
          }
        }
        int_val: 1
      }
    }
  }
}
node {
  name: "dnn/input_from_feature_columns/input_layer/budget_spend/strided_slice/stack_2"
  op: "Const"
  attr {
    key: "_output_shapes"
    value {
      list {
        shape {
          dim {
            size: 1
          }
        }
      }
    }
  }
  attr {
    key: "dtype"
    value {
      type: DT_INT32
    }
  }
  attr {
    key: "value"
    value {
      tensor {
        dtype: DT_INT32
        tensor_shape {
          dim {
            size: 1
          }
        }
        int_val: 1
      }
    }
  }
}
node {
  name: "dnn/input_from_feature_columns/input_layer/budget_spend/strided_slice"
  op: "StridedSlice"
  input: "dnn/input_from_feature_columns/input_layer/budget_spend/Shape"
  input: "dnn/input_from_feature_columns/input_layer/budget_spend/strided_slice/stack"
  input: "dnn/input_from_feature_columns/input_layer/budget_spend/strided_slice/stack_1"
  input: "dnn/input_from_feature_columns/input_layer/budget_spend/strided_slice/stack_2"
  attr {
    key: "Index"
    value {
      type: DT_INT32
    }
  }
  attr {
    key: "T"
    value {
      type: DT_INT32
    }
  }
  attr {
    key: "_output_shapes"
    value {
      list {
        shape {
        }
      }
    }
  }
  attr {
    key: "begin_mask"
    value {
      i: 0
    }
  }
  attr {
    key: "ellipsis_mask"
    value {
      i: 0
    }
  }
  attr {
    key: "end_mask"
    value {
      i: 0
    }
  }
  attr {
    key: "new_axis_mask"
    value {
      i: 0
    }
  }
  attr {
    key: "shrink_axis_mask"
    value {
      i: 1
    }
  }
}
node {
  name: "dnn/input_from_feature_columns/input_layer/budget_spend/Reshape/shape/1"
  op: "Const"
  attr {
    key: "_output_shapes"
    value {
      list {
        shape {
        }
      }
    }
  }
  attr {
    key: "dtype"
    value {
      type: DT_INT32
    }
  }
  attr {
    key: "value"
    value {
      tensor {
        dtype: DT_INT32
        tensor_shape {
        }
        int_val: 1
      }
    }
  }
}
node {
  name: "dnn/input_from_feature_columns/input_layer/budget_spend/Reshape/shape"
  op: "Pack"
  input: "dnn/input_from_feature_columns/input_layer/budget_spend/strided_slice"
  input: "dnn/input_from_feature_columns/input_layer/budget_spend/Reshape/shape/1"
  attr {
    key: "N"
    value {
      i: 2
    }
  }
  attr {
    key: "T"
    value {
      type: DT_INT32
    }
  }
  attr {
    key: "_output_shapes"
    value {
      list {
        shape {
          dim {
            size: 2
          }
        }
      }
    }
  }
  attr {
    key: "axis"
    value {
      i: 0
    }
  }
}
node {
  name: "dnn/input_from_feature_columns/input_layer/budget_spend/Reshape"
  op: "Reshape"
  input: "dnn/input_from_feature_columns/input_layer/budget_spend/ToFloat"
  input: "dnn/input_from_feature_columns/input_layer/budget_spend/Reshape/shape"
  attr {
    key: "T"
    value {
      type: DT_FLOAT
    }
  }
  attr {
    key: "Tshape"
    value {
      type: DT_INT32
    }
  }
  attr {
    key: "_output_shapes"
    value {
      list {
        shape {
          dim {
            size: -1
          }
          dim {
            size: 1
          }
        }
      }
    }
  }
}
node {
  name: "dnn/input_from_feature_columns/input_layer/corporate_family_indicator/ExpandDims/dim"
  op: "Const"
  attr {
    key: "_output_shapes"
    value {
      list {
        shape {
        }
      }
    }
  }
  attr {
    key: "dtype"
    value {
      type: DT_INT32
    }
  }
  attr {
    key: "value"
    value {
      tensor {
        dtype: DT_INT32
        tensor_shape {
        }
        int_val: -1
      }
    }
  }
}
node {
  name: "dnn/input_from_feature_columns/input_layer/corporate_family_indicator/ExpandDims"
  op: "ExpandDims"
  input: "IteratorGetNext:3"
  input: "dnn/input_from_feature_columns/input_layer/corporate_family_indicator/ExpandDims/dim"
  attr {
    key: "T"
    value {
      type: DT_STRING
    }
  }
  attr {
    key: "Tdim"
    value {
      type: DT_INT32
    }
  }
  attr {
    key: "_output_shapes"
    value {
      list {
        shape {
          dim {
            size: -1
          }
          dim {
            size: 1
          }
        }
      }
    }
  }
}
node {
  name: "dnn/input_from_feature_columns/input_layer/corporate_family_indicator/to_sparse_input/ignore_value/x"
  op: "Const"
  attr {
    key: "_output_shapes"
    value {
      list {
        shape {
        }
      }
    }
  }
  attr {
    key: "dtype"
    value {
      type: DT_STRING
    }
  }
  attr {
    key: "value"
    value {
      tensor {
        dtype: DT_STRING
        tensor_shape {
        }
        string_val: ""
      }
    }
  }
}
node {
  name: "dnn/input_from_feature_columns/input_layer/corporate_family_indicator/to_sparse_input/NotEqual"
  op: "NotEqual"
  input: "dnn/input_from_feature_columns/input_layer/corporate_family_indicator/ExpandDims"
  input: "dnn/input_from_feature_columns/input_layer/corporate_family_indicator/to_sparse_input/ignore_value/x"
  attr {
    key: "T"
    value {
      type: DT_STRING
    }
  }
  attr {
    key: "_output_shapes"
    value {
      list {
        shape {
          dim {
            size: -1
          }
          dim {
            size: 1
          }
        }
      }
    }
  }
}
node {
  name: "dnn/input_from_feature_columns/input_layer/corporate_family_indicator/to_sparse_input/indices"
  op: "Where"
  input: "dnn/input_from_feature_columns/input_layer/corporate_family_indicator/to_sparse_input/NotEqual"
  attr {
    key: "T"
    value {
      type: DT_BOOL
    }
  }
  attr {
    key: "_output_shapes"
    value {
      list {
        shape {
          dim {
            size: -1
          }
          dim {
            size: 2
          }
        }
      }
    }
  }
}
node {
  name: "dnn/input_from_feature_columns/input_layer/corporate_family_indicator/to_sparse_input/values"
  op: "GatherNd"
  input: "dnn/input_from_feature_columns/input_layer/corporate_family_indicator/ExpandDims"
  input: "dnn/input_from_feature_columns/input_layer/corporate_family_indicator/to_sparse_input/indices"
  attr {
    key: "Tindices"
    value {
      type: DT_INT64
    }
  }
  attr {
    key: "Tparams"
    value {
      type: DT_STRING
    }
  }
  attr {
    key: "_output_shapes"
    value {
      list {
        shape {
          dim {
            size: -1
          }
        }
      }
    }
  }
}
node {
  name: "dnn/input_from_feature_columns/input_layer/corporate_family_indicator/to_sparse_input/dense_shape"
  op: "Shape"
  input: "dnn/input_from_feature_columns/input_layer/corporate_family_indicator/ExpandDims"
  attr {
    key: "T"
    value {
      type: DT_STRING
    }
  }
  attr {
    key: "_output_shapes"
    value {
      list {
        shape {
          dim {
            size: 2
          }
        }
      }
    }
  }
  attr {
    key: "out_type"
    value {
      type: DT_INT64
    }
  }
}
node {
  name: "dnn/input_from_feature_columns/input_layer/corporate_family_indicator/corporate_family_lookup/Const"
  op: "Const"
  attr {
    key: "_output_shapes"
    value {
      list {
        shape {
          dim {
            size: 2
          }
        }
      }
    }
  }
  attr {
    key: "dtype"
    value {
      type: DT_STRING
    }
  }
  attr {
    key: "value"
    value {
      tensor {
        dtype: DT_STRING
        tensor_shape {
          dim {
            size: 2
          }
        }
        string_val: "y"
        string_val: "n"
      }
    }
  }
}
node {
  name: "dnn/input_from_feature_columns/input_layer/corporate_family_indicator/corporate_family_lookup/Size"
  op: "Const"
  attr {
    key: "_output_shapes"
    value {
      list {
        shape {
        }
      }
    }
  }
  attr {
    key: "dtype"
    value {
      type: DT_INT32
    }
  }
  attr {
    key: "value"
    value {
      tensor {
        dtype: DT_INT32
        tensor_shape {
        }
        int_val: 2
      }
    }
  }
}
node {
  name: "dnn/input_from_feature_columns/input_layer/corporate_family_indicator/corporate_family_lookup/range/start"
  op: "Const"
  attr {
    key: "_output_shapes"
    value {
      list {
        shape {
        }
      }
    }
  }
  attr {
    key: "dtype"
    value {
      type: DT_INT32
    }
  }
  attr {
    key: "value"
    value {
      tensor {
        dtype: DT_INT32
        tensor_shape {
        }
        int_val: 0
      }
    }
  }
}
node {
  name: "dnn/input_from_feature_columns/input_layer/corporate_family_indicator/corporate_family_lookup/range/delta"
  op: "Const"
  attr {
    key: "_output_shapes"
    value {
      list {
        shape {
        }
      }
    }
  }
  attr {
    key: "dtype"
    value {
      type: DT_INT32
    }
  }
  attr {
    key: "value"
    value {
      tensor {
        dtype: DT_INT32
        tensor_shape {
        }
        int_val: 1
      }
    }
  }
}
node {
  name: "dnn/input_from_feature_columns/input_layer/corporate_family_indicator/corporate_family_lookup/range"
  op: "Range"
  input: "dnn/input_from_feature_columns/input_layer/corporate_family_indicator/corporate_family_lookup/range/start"
  input: "dnn/input_from_feature_columns/input_layer/corporate_family_indicator/corporate_family_lookup/Size"
  input: "dnn/input_from_feature_columns/input_layer/corporate_family_indicator/corporate_family_lookup/range/delta"
  attr {
    key: "Tidx"
    value {
      type: DT_INT32
    }
  }
  attr {
    key: "_output_shapes"
    value {
      list {
        shape {
          dim {
            size: 2
          }
        }
      }
    }
  }
}
node {
  name: "dnn/input_from_feature_columns/input_layer/corporate_family_indicator/corporate_family_lookup/ToInt64"
  op: "Cast"
  input: "dnn/input_from_feature_columns/input_layer/corporate_family_indicator/corporate_family_lookup/range"
  attr {
    key: "DstT"
    value {
      type: DT_INT64
    }
  }
  attr {
    key: "SrcT"
    value {
      type: DT_INT32
    }
  }
  attr {
    key: "_output_shapes"
    value {
      list {
        shape {
          dim {
            size: 2
          }
        }
      }
    }
  }
}
node {
  name: "dnn/input_from_feature_columns/input_layer/corporate_family_indicator/corporate_family_lookup/hash_table"
  op: "HashTableV2"
  attr {
    key: "_output_shapes"
    value {
      list {
        shape {
        }
      }
    }
  }
  attr {
    key: "container"
    value {
      s: ""
    }
  }
  attr {
    key: "key_dtype"
    value {
      type: DT_STRING
    }
  }
  attr {
    key: "shared_name"
    value {
      s: ""
    }
  }
  attr {
    key: "use_node_name_sharing"
    value {
      b: false
    }
  }
  attr {
    key: "value_dtype"
    value {
      type: DT_INT64
    }
  }
}
node {
  name: "dnn/input_from_feature_columns/input_layer/corporate_family_indicator/corporate_family_lookup/hash_table/Const"
  op: "Const"
  attr {
    key: "_output_shapes"
    value {
      list {
        shape {
        }
      }
    }
  }
  attr {
    key: "dtype"
    value {
      type: DT_INT64
    }
  }
  attr {
    key: "value"
    value {
      tensor {
        dtype: DT_INT64
        tensor_shape {
        }
        int64_val: -1
      }
    }
  }
}
node {
  name: "dnn/input_from_feature_columns/input_layer/corporate_family_indicator/corporate_family_lookup/hash_table/table_init"
  op: "InitializeTableV2"
  input: "dnn/input_from_feature_columns/input_layer/corporate_family_indicator/corporate_family_lookup/hash_table"
  input: "dnn/input_from_feature_columns/input_layer/corporate_family_indicator/corporate_family_lookup/Const"
  input: "dnn/input_from_feature_columns/input_layer/corporate_family_indicator/corporate_family_lookup/ToInt64"
  attr {
    key: "Tkey"
    value {
      type: DT_STRING
    }
  }
  attr {
    key: "Tval"
    value {
      type: DT_INT64
    }
  }
}
node {
  name: "dnn/input_from_feature_columns/input_layer/corporate_family_indicator/hash_table_Lookup"
  op: "LookupTableFindV2"
  input: "dnn/input_from_feature_columns/input_layer/corporate_family_indicator/corporate_family_lookup/hash_table"
  input: "dnn/input_from_feature_columns/input_layer/corporate_family_indicator/to_sparse_input/values"
  input: "dnn/input_from_feature_columns/input_layer/corporate_family_indicator/corporate_family_lookup/hash_table/Const"
  attr {
    key: "Tin"
    value {
      type: DT_STRING
    }
  }
  attr {
    key: "Tout"
    value {
      type: DT_INT64
    }
  }
  attr {
    key: "_output_shapes"
    value {
      list {
        shape {
          dim {
            size: -1
          }
        }
      }
    }
  }
}
node {
  name: "dnn/input_from_feature_columns/input_layer/corporate_family_indicator/SparseToDense/default_value"
  op: "Const"
  attr {
    key: "_output_shapes"
    value {
      list {
        shape {
        }
      }
    }
  }
  attr {
    key: "dtype"
    value {
      type: DT_INT64
    }
  }
  attr {
    key: "value"
    value {
      tensor {
        dtype: DT_INT64
        tensor_shape {
        }
        int64_val: -1
      }
    }
  }
}
node {
  name: "dnn/input_from_feature_columns/input_layer/corporate_family_indicator/SparseToDense"
  op: "SparseToDense"
  input: "dnn/input_from_feature_columns/input_layer/corporate_family_indicator/to_sparse_input/indices"
  input: "dnn/input_from_feature_columns/input_layer/corporate_family_indicator/to_sparse_input/dense_shape"
  input: "dnn/input_from_feature_columns/input_layer/corporate_family_indicator/hash_table_Lookup"
  input: "dnn/input_from_feature_columns/input_layer/corporate_family_indicator/SparseToDense/default_value"
  attr {
    key: "T"
    value {
      type: DT_INT64
    }
  }
  attr {
    key: "Tindices"
    value {
      type: DT_INT64
    }
  }
  attr {
    key: "_output_shapes"
    value {
      list {
        shape {
          dim {
            size: -1
          }
          dim {
            size: 1
          }
        }
      }
    }
  }
  attr {
    key: "validate_indices"
    value {
      b: true
    }
  }
}
node {
  name: "dnn/input_from_feature_columns/input_layer/corporate_family_indicator/one_hot/Const"
  op: "Const"
  attr {
    key: "_output_shapes"
    value {
      list {
        shape {
        }
      }
    }
  }
  attr {
    key: "dtype"
    value {
      type: DT_FLOAT
    }
  }
  attr {
    key: "value"
    value {
      tensor {
        dtype: DT_FLOAT
        tensor_shape {
        }
        float_val: 1.0
      }
    }
  }
}
node {
  name: "dnn/input_from_feature_columns/input_layer/corporate_family_indicator/one_hot/Const_1"
  op: "Const"
  attr {
    key: "_output_shapes"
    value {
      list {
        shape {
        }
      }
    }
  }
  attr {
    key: "dtype"
    value {
      type: DT_FLOAT
    }
  }
  attr {
    key: "value"
    value {
      tensor {
        dtype: DT_FLOAT
        tensor_shape {
        }
        float_val: 0.0
      }
    }
  }
}
node {
  name: "dnn/input_from_feature_columns/input_layer/corporate_family_indicator/one_hot/depth"
  op: "Const"
  attr {
    key: "_output_shapes"
    value {
      list {
        shape {
        }
      }
    }
  }
  attr {
    key: "dtype"
    value {
      type: DT_INT32
    }
  }
  attr {
    key: "value"
    value {
      tensor {
        dtype: DT_INT32
        tensor_shape {
        }
        int_val: 2
      }
    }
  }
}
node {
  name: "dnn/input_from_feature_columns/input_layer/corporate_family_indicator/one_hot/on_value"
  op: "Const"
  attr {
    key: "_output_shapes"
    value {
      list {
        shape {
        }
      }
    }
  }
  attr {
    key: "dtype"
    value {
      type: DT_FLOAT
    }
  }
  attr {
    key: "value"
    value {
      tensor {
        dtype: DT_FLOAT
        tensor_shape {
        }
        float_val: 1.0
      }
    }
  }
}
node {
  name: "dnn/input_from_feature_columns/input_layer/corporate_family_indicator/one_hot/off_value"
  op: "Const"
  attr {
    key: "_output_shapes"
    value {
      list {
        shape {
        }
      }
    }
  }
  attr {
    key: "dtype"
    value {
      type: DT_FLOAT
    }
  }
  attr {
    key: "value"
    value {
      tensor {
        dtype: DT_FLOAT
        tensor_shape {
        }
        float_val: 0.0
      }
    }
  }
}
node {
  name: "dnn/input_from_feature_columns/input_layer/corporate_family_indicator/one_hot"
  op: "OneHot"
  input: "dnn/input_from_feature_columns/input_layer/corporate_family_indicator/SparseToDense"
  input: "dnn/input_from_feature_columns/input_layer/corporate_family_indicator/one_hot/depth"
  input: "dnn/input_from_feature_columns/input_layer/corporate_family_indicator/one_hot/on_value"
  input: "dnn/input_from_feature_columns/input_layer/corporate_family_indicator/one_hot/off_value"
  attr {
    key: "T"
    value {
      type: DT_FLOAT
    }
  }
  attr {
    key: "TI"
    value {
      type: DT_INT64
    }
  }
  attr {
    key: "_output_shapes"
    value {
      list {
        shape {
          dim {
            size: -1
          }
          dim {
            size: 1
          }
          dim {
            size: 2
          }
        }
      }
    }
  }
  attr {
    key: "axis"
    value {
      i: -1
    }
  }
}
node {
  name: "dnn/input_from_feature_columns/input_layer/corporate_family_indicator/Sum/reduction_indices"
  op: "Const"
  attr {
    key: "_output_shapes"
    value {
      list {
        shape {
          dim {
            size: 1
          }
        }
      }
    }
  }
  attr {
    key: "dtype"
    value {
      type: DT_INT32
    }
  }
  attr {
    key: "value"
    value {
      tensor {
        dtype: DT_INT32
        tensor_shape {
          dim {
            size: 1
          }
        }
        int_val: -2
      }
    }
  }
}
node {
  name: "dnn/input_from_feature_columns/input_layer/corporate_family_indicator/Sum"
  op: "Sum"
  input: "dnn/input_from_feature_columns/input_layer/corporate_family_indicator/one_hot"
  input: "dnn/input_from_feature_columns/input_layer/corporate_family_indicator/Sum/reduction_indices"
  attr {
    key: "T"
    value {
      type: DT_FLOAT
    }
  }
  attr {
    key: "Tidx"
    value {
      type: DT_INT32
    }
  }
  attr {
    key: "_output_shapes"
    value {
      list {
        shape {
          dim {
            size: -1
          }
          dim {
            size: 2
          }
        }
      }
    }
  }
  attr {
    key: "keep_dims"
    value {
      b: false
    }
  }
}
node {
  name: "dnn/input_from_feature_columns/input_layer/corporate_family_indicator/Shape"
  op: "Shape"
  input: "dnn/input_from_feature_columns/input_layer/corporate_family_indicator/Sum"
  attr {
    key: "T"
    value {
      type: DT_FLOAT
    }
  }
  attr {
    key: "_output_shapes"
    value {
      list {
        shape {
          dim {
            size: 2
          }
        }
      }
    }
  }
  attr {
    key: "out_type"
    value {
      type: DT_INT32
    }
  }
}
node {
  name: "dnn/input_from_feature_columns/input_layer/corporate_family_indicator/strided_slice/stack"
  op: "Const"
  attr {
    key: "_output_shapes"
    value {
      list {
        shape {
          dim {
            size: 1
          }
        }
      }
    }
  }
  attr {
    key: "dtype"
    value {
      type: DT_INT32
    }
  }
  attr {
    key: "value"
    value {
      tensor {
        dtype: DT_INT32
        tensor_shape {
          dim {
            size: 1
          }
        }
        int_val: 0
      }
    }
  }
}
node {
  name: "dnn/input_from_feature_columns/input_layer/corporate_family_indicator/strided_slice/stack_1"
  op: "Const"
  attr {
    key: "_output_shapes"
    value {
      list {
        shape {
          dim {
            size: 1
          }
        }
      }
    }
  }
  attr {
    key: "dtype"
    value {
      type: DT_INT32
    }
  }
  attr {
    key: "value"
    value {
      tensor {
        dtype: DT_INT32
        tensor_shape {
          dim {
            size: 1
          }
        }
        int_val: 1
      }
    }
  }
}
node {
  name: "dnn/input_from_feature_columns/input_layer/corporate_family_indicator/strided_slice/stack_2"
  op: "Const"
  attr {
    key: "_output_shapes"
    value {
      list {
        shape {
          dim {
            size: 1
          }
        }
      }
    }
  }
  attr {
    key: "dtype"
    value {
      type: DT_INT32
    }
  }
  attr {
    key: "value"
    value {
      tensor {
        dtype: DT_INT32
        tensor_shape {
          dim {
            size: 1
          }
        }
        int_val: 1
      }
    }
  }
}
node {
  name: "dnn/input_from_feature_columns/input_layer/corporate_family_indicator/strided_slice"
  op: "StridedSlice"
  input: "dnn/input_from_feature_columns/input_layer/corporate_family_indicator/Shape"
  input: "dnn/input_from_feature_columns/input_layer/corporate_family_indicator/strided_slice/stack"
  input: "dnn/input_from_feature_columns/input_layer/corporate_family_indicator/strided_slice/stack_1"
  input: "dnn/input_from_feature_columns/input_layer/corporate_family_indicator/strided_slice/stack_2"
  attr {
    key: "Index"
    value {
      type: DT_INT32
    }
  }
  attr {
    key: "T"
    value {
      type: DT_INT32
    }
  }
  attr {
    key: "_output_shapes"
    value {
      list {
        shape {
        }
      }
    }
  }
  attr {
    key: "begin_mask"
    value {
      i: 0
    }
  }
  attr {
    key: "ellipsis_mask"
    value {
      i: 0
    }
  }
  attr {
    key: "end_mask"
    value {
      i: 0
    }
  }
  attr {
    key: "new_axis_mask"
    value {
      i: 0
    }
  }
  attr {
    key: "shrink_axis_mask"
    value {
      i: 1
    }
  }
}
node {
  name: "dnn/input_from_feature_columns/input_layer/corporate_family_indicator/Reshape/shape/1"
  op: "Const"
  attr {
    key: "_output_shapes"
    value {
      list {
        shape {
        }
      }
    }
  }
  attr {
    key: "dtype"
    value {
      type: DT_INT32
    }
  }
  attr {
    key: "value"
    value {
      tensor {
        dtype: DT_INT32
        tensor_shape {
        }
        int_val: 2
      }
    }
  }
}
node {
  name: "dnn/input_from_feature_columns/input_layer/corporate_family_indicator/Reshape/shape"
  op: "Pack"
  input: "dnn/input_from_feature_columns/input_layer/corporate_family_indicator/strided_slice"
  input: "dnn/input_from_feature_columns/input_layer/corporate_family_indicator/Reshape/shape/1"
  attr {
    key: "N"
    value {
      i: 2
    }
  }
  attr {
    key: "T"
    value {
      type: DT_INT32
    }
  }
  attr {
    key: "_output_shapes"
    value {
      list {
        shape {
          dim {
            size: 2
          }
        }
      }
    }
  }
  attr {
    key: "axis"
    value {
      i: 0
    }
  }
}
node {
  name: "dnn/input_from_feature_columns/input_layer/corporate_family_indicator/Reshape"
  op: "Reshape"
  input: "dnn/input_from_feature_columns/input_layer/corporate_family_indicator/Sum"
  input: "dnn/input_from_feature_columns/input_layer/corporate_family_indicator/Reshape/shape"
  attr {
    key: "T"
    value {
      type: DT_FLOAT
    }
  }
  attr {
    key: "Tshape"
    value {
      type: DT_INT32
    }
  }
  attr {
    key: "_output_shapes"
    value {
      list {
        shape {
          dim {
            size: -1
          }
          dim {
            size: 2
          }
        }
      }
    }
  }
}
node {
  name: "dnn/input_from_feature_columns/input_layer/country_indicator/ExpandDims/dim"
  op: "Const"
  attr {
    key: "_output_shapes"
    value {
      list {
        shape {
        }
      }
    }
  }
  attr {
    key: "dtype"
    value {
      type: DT_INT32
    }
  }
  attr {
    key: "value"
    value {
      tensor {
        dtype: DT_INT32
        tensor_shape {
        }
        int_val: -1
      }
    }
  }
}
node {
  name: "dnn/input_from_feature_columns/input_layer/country_indicator/ExpandDims"
  op: "ExpandDims"
  input: "IteratorGetNext:4"
  input: "dnn/input_from_feature_columns/input_layer/country_indicator/ExpandDims/dim"
  attr {
    key: "T"
    value {
      type: DT_STRING
    }
  }
  attr {
    key: "Tdim"
    value {
      type: DT_INT32
    }
  }
  attr {
    key: "_output_shapes"
    value {
      list {
        shape {
          dim {
            size: -1
          }
          dim {
            size: 1
          }
        }
      }
    }
  }
}
node {
  name: "dnn/input_from_feature_columns/input_layer/country_indicator/to_sparse_input/ignore_value/x"
  op: "Const"
  attr {
    key: "_output_shapes"
    value {
      list {
        shape {
        }
      }
    }
  }
  attr {
    key: "dtype"
    value {
      type: DT_STRING
    }
  }
  attr {
    key: "value"
    value {
      tensor {
        dtype: DT_STRING
        tensor_shape {
        }
        string_val: ""
      }
    }
  }
}
node {
  name: "dnn/input_from_feature_columns/input_layer/country_indicator/to_sparse_input/NotEqual"
  op: "NotEqual"
  input: "dnn/input_from_feature_columns/input_layer/country_indicator/ExpandDims"
  input: "dnn/input_from_feature_columns/input_layer/country_indicator/to_sparse_input/ignore_value/x"
  attr {
    key: "T"
    value {
      type: DT_STRING
    }
  }
  attr {
    key: "_output_shapes"
    value {
      list {
        shape {
          dim {
            size: -1
          }
          dim {
            size: 1
          }
        }
      }
    }
  }
}
node {
  name: "dnn/input_from_feature_columns/input_layer/country_indicator/to_sparse_input/indices"
  op: "Where"
  input: "dnn/input_from_feature_columns/input_layer/country_indicator/to_sparse_input/NotEqual"
  attr {
    key: "T"
    value {
      type: DT_BOOL
    }
  }
  attr {
    key: "_output_shapes"
    value {
      list {
        shape {
          dim {
            size: -1
          }
          dim {
            size: 2
          }
        }
      }
    }
  }
}
node {
  name: "dnn/input_from_feature_columns/input_layer/country_indicator/to_sparse_input/values"
  op: "GatherNd"
  input: "dnn/input_from_feature_columns/input_layer/country_indicator/ExpandDims"
  input: "dnn/input_from_feature_columns/input_layer/country_indicator/to_sparse_input/indices"
  attr {
    key: "Tindices"
    value {
      type: DT_INT64
    }
  }
  attr {
    key: "Tparams"
    value {
      type: DT_STRING
    }
  }
  attr {
    key: "_output_shapes"
    value {
      list {
        shape {
          dim {
            size: -1
          }
        }
      }
    }
  }
}
node {
  name: "dnn/input_from_feature_columns/input_layer/country_indicator/to_sparse_input/dense_shape"
  op: "Shape"
  input: "dnn/input_from_feature_columns/input_layer/country_indicator/ExpandDims"
  attr {
    key: "T"
    value {
      type: DT_STRING
    }
  }
  attr {
    key: "_output_shapes"
    value {
      list {
        shape {
          dim {
            size: 2
          }
        }
      }
    }
  }
  attr {
    key: "out_type"
    value {
      type: DT_INT64
    }
  }
}
node {
  name: "dnn/input_from_feature_columns/input_layer/country_indicator/country_lookup/Const"
  op: "Const"
  attr {
    key: "_output_shapes"
    value {
      list {
        shape {
          dim {
            size: 5
          }
        }
      }
    }
  }
  attr {
    key: "dtype"
    value {
      type: DT_STRING
    }
  }
  attr {
    key: "value"
    value {
      tensor {
        dtype: DT_STRING
        tensor_shape {
          dim {
            size: 5
          }
        }
        string_val: "uk"
        string_val: "norway"
        string_val: "sweden"
        string_val: "finland"
        string_val: "denmark"
      }
    }
  }
}
node {
  name: "dnn/input_from_feature_columns/input_layer/country_indicator/country_lookup/Size"
  op: "Const"
  attr {
    key: "_output_shapes"
    value {
      list {
        shape {
        }
      }
    }
  }
  attr {
    key: "dtype"
    value {
      type: DT_INT32
    }
  }
  attr {
    key: "value"
    value {
      tensor {
        dtype: DT_INT32
        tensor_shape {
        }
        int_val: 5
      }
    }
  }
}
node {
  name: "dnn/input_from_feature_columns/input_layer/country_indicator/country_lookup/range/start"
  op: "Const"
  attr {
    key: "_output_shapes"
    value {
      list {
        shape {
        }
      }
    }
  }
  attr {
    key: "dtype"
    value {
      type: DT_INT32
    }
  }
  attr {
    key: "value"
    value {
      tensor {
        dtype: DT_INT32
        tensor_shape {
        }
        int_val: 0
      }
    }
  }
}
node {
  name: "dnn/input_from_feature_columns/input_layer/country_indicator/country_lookup/range/delta"
  op: "Const"
  attr {
    key: "_output_shapes"
    value {
      list {
        shape {
        }
      }
    }
  }
  attr {
    key: "dtype"
    value {
      type: DT_INT32
    }
  }
  attr {
    key: "value"
    value {
      tensor {
        dtype: DT_INT32
        tensor_shape {
        }
        int_val: 1
      }
    }
  }
}
node {
  name: "dnn/input_from_feature_columns/input_layer/country_indicator/country_lookup/range"
  op: "Range"
  input: "dnn/input_from_feature_columns/input_layer/country_indicator/country_lookup/range/start"
  input: "dnn/input_from_feature_columns/input_layer/country_indicator/country_lookup/Size"
  input: "dnn/input_from_feature_columns/input_layer/country_indicator/country_lookup/range/delta"
  attr {
    key: "Tidx"
    value {
      type: DT_INT32
    }
  }
  attr {
    key: "_output_shapes"
    value {
      list {
        shape {
          dim {
            size: 5
          }
        }
      }
    }
  }
}
node {
  name: "dnn/input_from_feature_columns/input_layer/country_indicator/country_lookup/ToInt64"
  op: "Cast"
  input: "dnn/input_from_feature_columns/input_layer/country_indicator/country_lookup/range"
  attr {
    key: "DstT"
    value {
      type: DT_INT64
    }
  }
  attr {
    key: "SrcT"
    value {
      type: DT_INT32
    }
  }
  attr {
    key: "_output_shapes"
    value {
      list {
        shape {
          dim {
            size: 5
          }
        }
      }
    }
  }
}
node {
  name: "dnn/input_from_feature_columns/input_layer/country_indicator/country_lookup/hash_table"
  op: "HashTableV2"
  attr {
    key: "_output_shapes"
    value {
      list {
        shape {
        }
      }
    }
  }
  attr {
    key: "container"
    value {
      s: ""
    }
  }
  attr {
    key: "key_dtype"
    value {
      type: DT_STRING
    }
  }
  attr {
    key: "shared_name"
    value {
      s: ""
    }
  }
  attr {
    key: "use_node_name_sharing"
    value {
      b: false
    }
  }
  attr {
    key: "value_dtype"
    value {
      type: DT_INT64
    }
  }
}
node {
  name: "dnn/input_from_feature_columns/input_layer/country_indicator/country_lookup/hash_table/Const"
  op: "Const"
  attr {
    key: "_output_shapes"
    value {
      list {
        shape {
        }
      }
    }
  }
  attr {
    key: "dtype"
    value {
      type: DT_INT64
    }
  }
  attr {
    key: "value"
    value {
      tensor {
        dtype: DT_INT64
        tensor_shape {
        }
        int64_val: -1
      }
    }
  }
}
node {
  name: "dnn/input_from_feature_columns/input_layer/country_indicator/country_lookup/hash_table/table_init"
  op: "InitializeTableV2"
  input: "dnn/input_from_feature_columns/input_layer/country_indicator/country_lookup/hash_table"
  input: "dnn/input_from_feature_columns/input_layer/country_indicator/country_lookup/Const"
  input: "dnn/input_from_feature_columns/input_layer/country_indicator/country_lookup/ToInt64"
  attr {
    key: "Tkey"
    value {
      type: DT_STRING
    }
  }
  attr {
    key: "Tval"
    value {
      type: DT_INT64
    }
  }
}
node {
  name: "dnn/input_from_feature_columns/input_layer/country_indicator/hash_table_Lookup"
  op: "LookupTableFindV2"
  input: "dnn/input_from_feature_columns/input_layer/country_indicator/country_lookup/hash_table"
  input: "dnn/input_from_feature_columns/input_layer/country_indicator/to_sparse_input/values"
  input: "dnn/input_from_feature_columns/input_layer/country_indicator/country_lookup/hash_table/Const"
  attr {
    key: "Tin"
    value {
      type: DT_STRING
    }
  }
  attr {
    key: "Tout"
    value {
      type: DT_INT64
    }
  }
  attr {
    key: "_output_shapes"
    value {
      list {
        shape {
          dim {
            size: -1
          }
        }
      }
    }
  }
}
node {
  name: "dnn/input_from_feature_columns/input_layer/country_indicator/SparseToDense/default_value"
  op: "Const"
  attr {
    key: "_output_shapes"
    value {
      list {
        shape {
        }
      }
    }
  }
  attr {
    key: "dtype"
    value {
      type: DT_INT64
    }
  }
  attr {
    key: "value"
    value {
      tensor {
        dtype: DT_INT64
        tensor_shape {
        }
        int64_val: -1
      }
    }
  }
}
node {
  name: "dnn/input_from_feature_columns/input_layer/country_indicator/SparseToDense"
  op: "SparseToDense"
  input: "dnn/input_from_feature_columns/input_layer/country_indicator/to_sparse_input/indices"
  input: "dnn/input_from_feature_columns/input_layer/country_indicator/to_sparse_input/dense_shape"
  input: "dnn/input_from_feature_columns/input_layer/country_indicator/hash_table_Lookup"
  input: "dnn/input_from_feature_columns/input_layer/country_indicator/SparseToDense/default_value"
  attr {
    key: "T"
    value {
      type: DT_INT64
    }
  }
  attr {
    key: "Tindices"
    value {
      type: DT_INT64
    }
  }
  attr {
    key: "_output_shapes"
    value {
      list {
        shape {
          dim {
            size: -1
          }
          dim {
            size: 1
          }
        }
      }
    }
  }
  attr {
    key: "validate_indices"
    value {
      b: true
    }
  }
}
node {
  name: "dnn/input_from_feature_columns/input_layer/country_indicator/one_hot/Const"
  op: "Const"
  attr {
    key: "_output_shapes"
    value {
      list {
        shape {
        }
      }
    }
  }
  attr {
    key: "dtype"
    value {
      type: DT_FLOAT
    }
  }
  attr {
    key: "value"
    value {
      tensor {
        dtype: DT_FLOAT
        tensor_shape {
        }
        float_val: 1.0
      }
    }
  }
}
node {
  name: "dnn/input_from_feature_columns/input_layer/country_indicator/one_hot/Const_1"
  op: "Const"
  attr {
    key: "_output_shapes"
    value {
      list {
        shape {
        }
      }
    }
  }
  attr {
    key: "dtype"
    value {
      type: DT_FLOAT
    }
  }
  attr {
    key: "value"
    value {
      tensor {
        dtype: DT_FLOAT
        tensor_shape {
        }
        float_val: 0.0
      }
    }
  }
}
node {
  name: "dnn/input_from_feature_columns/input_layer/country_indicator/one_hot/depth"
  op: "Const"
  attr {
    key: "_output_shapes"
    value {
      list {
        shape {
        }
      }
    }
  }
  attr {
    key: "dtype"
    value {
      type: DT_INT32
    }
  }
  attr {
    key: "value"
    value {
      tensor {
        dtype: DT_INT32
        tensor_shape {
        }
        int_val: 5
      }
    }
  }
}
node {
  name: "dnn/input_from_feature_columns/input_layer/country_indicator/one_hot/on_value"
  op: "Const"
  attr {
    key: "_output_shapes"
    value {
      list {
        shape {
        }
      }
    }
  }
  attr {
    key: "dtype"
    value {
      type: DT_FLOAT
    }
  }
  attr {
    key: "value"
    value {
      tensor {
        dtype: DT_FLOAT
        tensor_shape {
        }
        float_val: 1.0
      }
    }
  }
}
node {
  name: "dnn/input_from_feature_columns/input_layer/country_indicator/one_hot/off_value"
  op: "Const"
  attr {
    key: "_output_shapes"
    value {
      list {
        shape {
        }
      }
    }
  }
  attr {
    key: "dtype"
    value {
      type: DT_FLOAT
    }
  }
  attr {
    key: "value"
    value {
      tensor {
        dtype: DT_FLOAT
        tensor_shape {
        }
        float_val: 0.0
      }
    }
  }
}
node {
  name: "dnn/input_from_feature_columns/input_layer/country_indicator/one_hot"
  op: "OneHot"
  input: "dnn/input_from_feature_columns/input_layer/country_indicator/SparseToDense"
  input: "dnn/input_from_feature_columns/input_layer/country_indicator/one_hot/depth"
  input: "dnn/input_from_feature_columns/input_layer/country_indicator/one_hot/on_value"
  input: "dnn/input_from_feature_columns/input_layer/country_indicator/one_hot/off_value"
  attr {
    key: "T"
    value {
      type: DT_FLOAT
    }
  }
  attr {
    key: "TI"
    value {
      type: DT_INT64
    }
  }
  attr {
    key: "_output_shapes"
    value {
      list {
        shape {
          dim {
            size: -1
          }
          dim {
            size: 1
          }
          dim {
            size: 5
          }
        }
      }
    }
  }
  attr {
    key: "axis"
    value {
      i: -1
    }
  }
}
node {
  name: "dnn/input_from_feature_columns/input_layer/country_indicator/Sum/reduction_indices"
  op: "Const"
  attr {
    key: "_output_shapes"
    value {
      list {
        shape {
          dim {
            size: 1
          }
        }
      }
    }
  }
  attr {
    key: "dtype"
    value {
      type: DT_INT32
    }
  }
  attr {
    key: "value"
    value {
      tensor {
        dtype: DT_INT32
        tensor_shape {
          dim {
            size: 1
          }
        }
        int_val: -2
      }
    }
  }
}
node {
  name: "dnn/input_from_feature_columns/input_layer/country_indicator/Sum"
  op: "Sum"
  input: "dnn/input_from_feature_columns/input_layer/country_indicator/one_hot"
  input: "dnn/input_from_feature_columns/input_layer/country_indicator/Sum/reduction_indices"
  attr {
    key: "T"
    value {
      type: DT_FLOAT
    }
  }
  attr {
    key: "Tidx"
    value {
      type: DT_INT32
    }
  }
  attr {
    key: "_output_shapes"
    value {
      list {
        shape {
          dim {
            size: -1
          }
          dim {
            size: 5
          }
        }
      }
    }
  }
  attr {
    key: "keep_dims"
    value {
      b: false
    }
  }
}
node {
  name: "dnn/input_from_feature_columns/input_layer/country_indicator/Shape"
  op: "Shape"
  input: "dnn/input_from_feature_columns/input_layer/country_indicator/Sum"
  attr {
    key: "T"
    value {
      type: DT_FLOAT
    }
  }
  attr {
    key: "_output_shapes"
    value {
      list {
        shape {
          dim {
            size: 2
          }
        }
      }
    }
  }
  attr {
    key: "out_type"
    value {
      type: DT_INT32
    }
  }
}
node {
  name: "dnn/input_from_feature_columns/input_layer/country_indicator/strided_slice/stack"
  op: "Const"
  attr {
    key: "_output_shapes"
    value {
      list {
        shape {
          dim {
            size: 1
          }
        }
      }
    }
  }
  attr {
    key: "dtype"
    value {
      type: DT_INT32
    }
  }
  attr {
    key: "value"
    value {
      tensor {
        dtype: DT_INT32
        tensor_shape {
          dim {
            size: 1
          }
        }
        int_val: 0
      }
    }
  }
}
node {
  name: "dnn/input_from_feature_columns/input_layer/country_indicator/strided_slice/stack_1"
  op: "Const"
  attr {
    key: "_output_shapes"
    value {
      list {
        shape {
          dim {
            size: 1
          }
        }
      }
    }
  }
  attr {
    key: "dtype"
    value {
      type: DT_INT32
    }
  }
  attr {
    key: "value"
    value {
      tensor {
        dtype: DT_INT32
        tensor_shape {
          dim {
            size: 1
          }
        }
        int_val: 1
      }
    }
  }
}
node {
  name: "dnn/input_from_feature_columns/input_layer/country_indicator/strided_slice/stack_2"
  op: "Const"
  attr {
    key: "_output_shapes"
    value {
      list {
        shape {
          dim {
            size: 1
          }
        }
      }
    }
  }
  attr {
    key: "dtype"
    value {
      type: DT_INT32
    }
  }
  attr {
    key: "value"
    value {
      tensor {
        dtype: DT_INT32
        tensor_shape {
          dim {
            size: 1
          }
        }
        int_val: 1
      }
    }
  }
}
node {
  name: "dnn/input_from_feature_columns/input_layer/country_indicator/strided_slice"
  op: "StridedSlice"
  input: "dnn/input_from_feature_columns/input_layer/country_indicator/Shape"
  input: "dnn/input_from_feature_columns/input_layer/country_indicator/strided_slice/stack"
  input: "dnn/input_from_feature_columns/input_layer/country_indicator/strided_slice/stack_1"
  input: "dnn/input_from_feature_columns/input_layer/country_indicator/strided_slice/stack_2"
  attr {
    key: "Index"
    value {
      type: DT_INT32
    }
  }
  attr {
    key: "T"
    value {
      type: DT_INT32
    }
  }
  attr {
    key: "_output_shapes"
    value {
      list {
        shape {
        }
      }
    }
  }
  attr {
    key: "begin_mask"
    value {
      i: 0
    }
  }
  attr {
    key: "ellipsis_mask"
    value {
      i: 0
    }
  }
  attr {
    key: "end_mask"
    value {
      i: 0
    }
  }
  attr {
    key: "new_axis_mask"
    value {
      i: 0
    }
  }
  attr {
    key: "shrink_axis_mask"
    value {
      i: 1
    }
  }
}
node {
  name: "dnn/input_from_feature_columns/input_layer/country_indicator/Reshape/shape/1"
  op: "Const"
  attr {
    key: "_output_shapes"
    value {
      list {
        shape {
        }
      }
    }
  }
  attr {
    key: "dtype"
    value {
      type: DT_INT32
    }
  }
  attr {
    key: "value"
    value {
      tensor {
        dtype: DT_INT32
        tensor_shape {
        }
        int_val: 5
      }
    }
  }
}
node {
  name: "dnn/input_from_feature_columns/input_layer/country_indicator/Reshape/shape"
  op: "Pack"
  input: "dnn/input_from_feature_columns/input_layer/country_indicator/strided_slice"
  input: "dnn/input_from_feature_columns/input_layer/country_indicator/Reshape/shape/1"
  attr {
    key: "N"
    value {
      i: 2
    }
  }
  attr {
    key: "T"
    value {
      type: DT_INT32
    }
  }
  attr {
    key: "_output_shapes"
    value {
      list {
        shape {
          dim {
            size: 2
          }
        }
      }
    }
  }
  attr {
    key: "axis"
    value {
      i: 0
    }
  }
}
node {
  name: "dnn/input_from_feature_columns/input_layer/country_indicator/Reshape"
  op: "Reshape"
  input: "dnn/input_from_feature_columns/input_layer/country_indicator/Sum"
  input: "dnn/input_from_feature_columns/input_layer/country_indicator/Reshape/shape"
  attr {
    key: "T"
    value {
      type: DT_FLOAT
    }
  }
  attr {
    key: "Tshape"
    value {
      type: DT_INT32
    }
  }
  attr {
    key: "_output_shapes"
    value {
      list {
        shape {
          dim {
            size: -1
          }
          dim {
            size: 5
          }
        }
      }
    }
  }
}
node {
  name: "dnn/input_from_feature_columns/input_layer/credit_rating_indicator/ExpandDims/dim"
  op: "Const"
  attr {
    key: "_output_shapes"
    value {
      list {
        shape {
        }
      }
    }
  }
  attr {
    key: "dtype"
    value {
      type: DT_INT32
    }
  }
  attr {
    key: "value"
    value {
      tensor {
        dtype: DT_INT32
        tensor_shape {
        }
        int_val: -1
      }
    }
  }
}
node {
  name: "dnn/input_from_feature_columns/input_layer/credit_rating_indicator/ExpandDims"
  op: "ExpandDims"
  input: "IteratorGetNext:5"
  input: "dnn/input_from_feature_columns/input_layer/credit_rating_indicator/ExpandDims/dim"
  attr {
    key: "T"
    value {
      type: DT_STRING
    }
  }
  attr {
    key: "Tdim"
    value {
      type: DT_INT32
    }
  }
  attr {
    key: "_output_shapes"
    value {
      list {
        shape {
          dim {
            size: -1
          }
          dim {
            size: 1
          }
        }
      }
    }
  }
}
node {
  name: "dnn/input_from_feature_columns/input_layer/credit_rating_indicator/to_sparse_input/ignore_value/x"
  op: "Const"
  attr {
    key: "_output_shapes"
    value {
      list {
        shape {
        }
      }
    }
  }
  attr {
    key: "dtype"
    value {
      type: DT_STRING
    }
  }
  attr {
    key: "value"
    value {
      tensor {
        dtype: DT_STRING
        tensor_shape {
        }
        string_val: ""
      }
    }
  }
}
node {
  name: "dnn/input_from_feature_columns/input_layer/credit_rating_indicator/to_sparse_input/NotEqual"
  op: "NotEqual"
  input: "dnn/input_from_feature_columns/input_layer/credit_rating_indicator/ExpandDims"
  input: "dnn/input_from_feature_columns/input_layer/credit_rating_indicator/to_sparse_input/ignore_value/x"
  attr {
    key: "T"
    value {
      type: DT_STRING
    }
  }
  attr {
    key: "_output_shapes"
    value {
      list {
        shape {
          dim {
            size: -1
          }
          dim {
            size: 1
          }
        }
      }
    }
  }
}
node {
  name: "dnn/input_from_feature_columns/input_layer/credit_rating_indicator/to_sparse_input/indices"
  op: "Where"
  input: "dnn/input_from_feature_columns/input_layer/credit_rating_indicator/to_sparse_input/NotEqual"
  attr {
    key: "T"
    value {
      type: DT_BOOL
    }
  }
  attr {
    key: "_output_shapes"
    value {
      list {
        shape {
          dim {
            size: -1
          }
          dim {
            size: 2
          }
        }
      }
    }
  }
}
node {
  name: "dnn/input_from_feature_columns/input_layer/credit_rating_indicator/to_sparse_input/values"
  op: "GatherNd"
  input: "dnn/input_from_feature_columns/input_layer/credit_rating_indicator/ExpandDims"
  input: "dnn/input_from_feature_columns/input_layer/credit_rating_indicator/to_sparse_input/indices"
  attr {
    key: "Tindices"
    value {
      type: DT_INT64
    }
  }
  attr {
    key: "Tparams"
    value {
      type: DT_STRING
    }
  }
  attr {
    key: "_output_shapes"
    value {
      list {
        shape {
          dim {
            size: -1
          }
        }
      }
    }
  }
}
node {
  name: "dnn/input_from_feature_columns/input_layer/credit_rating_indicator/to_sparse_input/dense_shape"
  op: "Shape"
  input: "dnn/input_from_feature_columns/input_layer/credit_rating_indicator/ExpandDims"
  attr {
    key: "T"
    value {
      type: DT_STRING
    }
  }
  attr {
    key: "_output_shapes"
    value {
      list {
        shape {
          dim {
            size: 2
          }
        }
      }
    }
  }
  attr {
    key: "out_type"
    value {
      type: DT_INT64
    }
  }
}
node {
  name: "dnn/input_from_feature_columns/input_layer/credit_rating_indicator/credit_rating_lookup/Const"
  op: "Const"
  attr {
    key: "_output_shapes"
    value {
      list {
        shape {
          dim {
            size: 12
          }
        }
      }
    }
  }
  attr {
    key: "dtype"
    value {
      type: DT_STRING
    }
  }
  attr {
    key: "value"
    value {
      tensor {
        dtype: DT_STRING
        tensor_shape {
          dim {
            size: 12
          }
        }
        string_val: "aaa"
        string_val: "aa"
        string_val: "a"
        string_val: "bbb"
        string_val: "bb"
        string_val: "b"
        string_val: "ccc"
        string_val: "cc"
        string_val: "c"
        string_val: "ddd"
        string_val: "dd"
        string_val: "d"
      }
    }
  }
}
node {
  name: "dnn/input_from_feature_columns/input_layer/credit_rating_indicator/credit_rating_lookup/Size"
  op: "Const"
  attr {
    key: "_output_shapes"
    value {
      list {
        shape {
        }
      }
    }
  }
  attr {
    key: "dtype"
    value {
      type: DT_INT32
    }
  }
  attr {
    key: "value"
    value {
      tensor {
        dtype: DT_INT32
        tensor_shape {
        }
        int_val: 12
      }
    }
  }
}
node {
  name: "dnn/input_from_feature_columns/input_layer/credit_rating_indicator/credit_rating_lookup/range/start"
  op: "Const"
  attr {
    key: "_output_shapes"
    value {
      list {
        shape {
        }
      }
    }
  }
  attr {
    key: "dtype"
    value {
      type: DT_INT32
    }
  }
  attr {
    key: "value"
    value {
      tensor {
        dtype: DT_INT32
        tensor_shape {
        }
        int_val: 0
      }
    }
  }
}
node {
  name: "dnn/input_from_feature_columns/input_layer/credit_rating_indicator/credit_rating_lookup/range/delta"
  op: "Const"
  attr {
    key: "_output_shapes"
    value {
      list {
        shape {
        }
      }
    }
  }
  attr {
    key: "dtype"
    value {
      type: DT_INT32
    }
  }
  attr {
    key: "value"
    value {
      tensor {
        dtype: DT_INT32
        tensor_shape {
        }
        int_val: 1
      }
    }
  }
}
node {
  name: "dnn/input_from_feature_columns/input_layer/credit_rating_indicator/credit_rating_lookup/range"
  op: "Range"
  input: "dnn/input_from_feature_columns/input_layer/credit_rating_indicator/credit_rating_lookup/range/start"
  input: "dnn/input_from_feature_columns/input_layer/credit_rating_indicator/credit_rating_lookup/Size"
  input: "dnn/input_from_feature_columns/input_layer/credit_rating_indicator/credit_rating_lookup/range/delta"
  attr {
    key: "Tidx"
    value {
      type: DT_INT32
    }
  }
  attr {
    key: "_output_shapes"
    value {
      list {
        shape {
          dim {
            size: 12
          }
        }
      }
    }
  }
}
node {
  name: "dnn/input_from_feature_columns/input_layer/credit_rating_indicator/credit_rating_lookup/ToInt64"
  op: "Cast"
  input: "dnn/input_from_feature_columns/input_layer/credit_rating_indicator/credit_rating_lookup/range"
  attr {
    key: "DstT"
    value {
      type: DT_INT64
    }
  }
  attr {
    key: "SrcT"
    value {
      type: DT_INT32
    }
  }
  attr {
    key: "_output_shapes"
    value {
      list {
        shape {
          dim {
            size: 12
          }
        }
      }
    }
  }
}
node {
  name: "dnn/input_from_feature_columns/input_layer/credit_rating_indicator/credit_rating_lookup/hash_table"
  op: "HashTableV2"
  attr {
    key: "_output_shapes"
    value {
      list {
        shape {
        }
      }
    }
  }
  attr {
    key: "container"
    value {
      s: ""
    }
  }
  attr {
    key: "key_dtype"
    value {
      type: DT_STRING
    }
  }
  attr {
    key: "shared_name"
    value {
      s: ""
    }
  }
  attr {
    key: "use_node_name_sharing"
    value {
      b: false
    }
  }
  attr {
    key: "value_dtype"
    value {
      type: DT_INT64
    }
  }
}
node {
  name: "dnn/input_from_feature_columns/input_layer/credit_rating_indicator/credit_rating_lookup/hash_table/Const"
  op: "Const"
  attr {
    key: "_output_shapes"
    value {
      list {
        shape {
        }
      }
    }
  }
  attr {
    key: "dtype"
    value {
      type: DT_INT64
    }
  }
  attr {
    key: "value"
    value {
      tensor {
        dtype: DT_INT64
        tensor_shape {
        }
        int64_val: -1
      }
    }
  }
}
node {
  name: "dnn/input_from_feature_columns/input_layer/credit_rating_indicator/credit_rating_lookup/hash_table/table_init"
  op: "InitializeTableV2"
  input: "dnn/input_from_feature_columns/input_layer/credit_rating_indicator/credit_rating_lookup/hash_table"
  input: "dnn/input_from_feature_columns/input_layer/credit_rating_indicator/credit_rating_lookup/Const"
  input: "dnn/input_from_feature_columns/input_layer/credit_rating_indicator/credit_rating_lookup/ToInt64"
  attr {
    key: "Tkey"
    value {
      type: DT_STRING
    }
  }
  attr {
    key: "Tval"
    value {
      type: DT_INT64
    }
  }
}
node {
  name: "dnn/input_from_feature_columns/input_layer/credit_rating_indicator/hash_table_Lookup"
  op: "LookupTableFindV2"
  input: "dnn/input_from_feature_columns/input_layer/credit_rating_indicator/credit_rating_lookup/hash_table"
  input: "dnn/input_from_feature_columns/input_layer/credit_rating_indicator/to_sparse_input/values"
  input: "dnn/input_from_feature_columns/input_layer/credit_rating_indicator/credit_rating_lookup/hash_table/Const"
  attr {
    key: "Tin"
    value {
      type: DT_STRING
    }
  }
  attr {
    key: "Tout"
    value {
      type: DT_INT64
    }
  }
  attr {
    key: "_output_shapes"
    value {
      list {
        shape {
          dim {
            size: -1
          }
        }
      }
    }
  }
}
node {
  name: "dnn/input_from_feature_columns/input_layer/credit_rating_indicator/SparseToDense/default_value"
  op: "Const"
  attr {
    key: "_output_shapes"
    value {
      list {
        shape {
        }
      }
    }
  }
  attr {
    key: "dtype"
    value {
      type: DT_INT64
    }
  }
  attr {
    key: "value"
    value {
      tensor {
        dtype: DT_INT64
        tensor_shape {
        }
        int64_val: -1
      }
    }
  }
}
node {
  name: "dnn/input_from_feature_columns/input_layer/credit_rating_indicator/SparseToDense"
  op: "SparseToDense"
  input: "dnn/input_from_feature_columns/input_layer/credit_rating_indicator/to_sparse_input/indices"
  input: "dnn/input_from_feature_columns/input_layer/credit_rating_indicator/to_sparse_input/dense_shape"
  input: "dnn/input_from_feature_columns/input_layer/credit_rating_indicator/hash_table_Lookup"
  input: "dnn/input_from_feature_columns/input_layer/credit_rating_indicator/SparseToDense/default_value"
  attr {
    key: "T"
    value {
      type: DT_INT64
    }
  }
  attr {
    key: "Tindices"
    value {
      type: DT_INT64
    }
  }
  attr {
    key: "_output_shapes"
    value {
      list {
        shape {
          dim {
            size: -1
          }
          dim {
            size: 1
          }
        }
      }
    }
  }
  attr {
    key: "validate_indices"
    value {
      b: true
    }
  }
}
node {
  name: "dnn/input_from_feature_columns/input_layer/credit_rating_indicator/one_hot/Const"
  op: "Const"
  attr {
    key: "_output_shapes"
    value {
      list {
        shape {
        }
      }
    }
  }
  attr {
    key: "dtype"
    value {
      type: DT_FLOAT
    }
  }
  attr {
    key: "value"
    value {
      tensor {
        dtype: DT_FLOAT
        tensor_shape {
        }
        float_val: 1.0
      }
    }
  }
}
node {
  name: "dnn/input_from_feature_columns/input_layer/credit_rating_indicator/one_hot/Const_1"
  op: "Const"
  attr {
    key: "_output_shapes"
    value {
      list {
        shape {
        }
      }
    }
  }
  attr {
    key: "dtype"
    value {
      type: DT_FLOAT
    }
  }
  attr {
    key: "value"
    value {
      tensor {
        dtype: DT_FLOAT
        tensor_shape {
        }
        float_val: 0.0
      }
    }
  }
}
node {
  name: "dnn/input_from_feature_columns/input_layer/credit_rating_indicator/one_hot/depth"
  op: "Const"
  attr {
    key: "_output_shapes"
    value {
      list {
        shape {
        }
      }
    }
  }
  attr {
    key: "dtype"
    value {
      type: DT_INT32
    }
  }
  attr {
    key: "value"
    value {
      tensor {
        dtype: DT_INT32
        tensor_shape {
        }
        int_val: 12
      }
    }
  }
}
node {
  name: "dnn/input_from_feature_columns/input_layer/credit_rating_indicator/one_hot/on_value"
  op: "Const"
  attr {
    key: "_output_shapes"
    value {
      list {
        shape {
        }
      }
    }
  }
  attr {
    key: "dtype"
    value {
      type: DT_FLOAT
    }
  }
  attr {
    key: "value"
    value {
      tensor {
        dtype: DT_FLOAT
        tensor_shape {
        }
        float_val: 1.0
      }
    }
  }
}
node {
  name: "dnn/input_from_feature_columns/input_layer/credit_rating_indicator/one_hot/off_value"
  op: "Const"
  attr {
    key: "_output_shapes"
    value {
      list {
        shape {
        }
      }
    }
  }
  attr {
    key: "dtype"
    value {
      type: DT_FLOAT
    }
  }
  attr {
    key: "value"
    value {
      tensor {
        dtype: DT_FLOAT
        tensor_shape {
        }
        float_val: 0.0
      }
    }
  }
}
node {
  name: "dnn/input_from_feature_columns/input_layer/credit_rating_indicator/one_hot"
  op: "OneHot"
  input: "dnn/input_from_feature_columns/input_layer/credit_rating_indicator/SparseToDense"
  input: "dnn/input_from_feature_columns/input_layer/credit_rating_indicator/one_hot/depth"
  input: "dnn/input_from_feature_columns/input_layer/credit_rating_indicator/one_hot/on_value"
  input: "dnn/input_from_feature_columns/input_layer/credit_rating_indicator/one_hot/off_value"
  attr {
    key: "T"
    value {
      type: DT_FLOAT
    }
  }
  attr {
    key: "TI"
    value {
      type: DT_INT64
    }
  }
  attr {
    key: "_output_shapes"
    value {
      list {
        shape {
          dim {
            size: -1
          }
          dim {
            size: 1
          }
          dim {
            size: 12
          }
        }
      }
    }
  }
  attr {
    key: "axis"
    value {
      i: -1
    }
  }
}
node {
  name: "dnn/input_from_feature_columns/input_layer/credit_rating_indicator/Sum/reduction_indices"
  op: "Const"
  attr {
    key: "_output_shapes"
    value {
      list {
        shape {
          dim {
            size: 1
          }
        }
      }
    }
  }
  attr {
    key: "dtype"
    value {
      type: DT_INT32
    }
  }
  attr {
    key: "value"
    value {
      tensor {
        dtype: DT_INT32
        tensor_shape {
          dim {
            size: 1
          }
        }
        int_val: -2
      }
    }
  }
}
node {
  name: "dnn/input_from_feature_columns/input_layer/credit_rating_indicator/Sum"
  op: "Sum"
  input: "dnn/input_from_feature_columns/input_layer/credit_rating_indicator/one_hot"
  input: "dnn/input_from_feature_columns/input_layer/credit_rating_indicator/Sum/reduction_indices"
  attr {
    key: "T"
    value {
      type: DT_FLOAT
    }
  }
  attr {
    key: "Tidx"
    value {
      type: DT_INT32
    }
  }
  attr {
    key: "_output_shapes"
    value {
      list {
        shape {
          dim {
            size: -1
          }
          dim {
            size: 12
          }
        }
      }
    }
  }
  attr {
    key: "keep_dims"
    value {
      b: false
    }
  }
}
node {
  name: "dnn/input_from_feature_columns/input_layer/credit_rating_indicator/Shape"
  op: "Shape"
  input: "dnn/input_from_feature_columns/input_layer/credit_rating_indicator/Sum"
  attr {
    key: "T"
    value {
      type: DT_FLOAT
    }
  }
  attr {
    key: "_output_shapes"
    value {
      list {
        shape {
          dim {
            size: 2
          }
        }
      }
    }
  }
  attr {
    key: "out_type"
    value {
      type: DT_INT32
    }
  }
}
node {
  name: "dnn/input_from_feature_columns/input_layer/credit_rating_indicator/strided_slice/stack"
  op: "Const"
  attr {
    key: "_output_shapes"
    value {
      list {
        shape {
          dim {
            size: 1
          }
        }
      }
    }
  }
  attr {
    key: "dtype"
    value {
      type: DT_INT32
    }
  }
  attr {
    key: "value"
    value {
      tensor {
        dtype: DT_INT32
        tensor_shape {
          dim {
            size: 1
          }
        }
        int_val: 0
      }
    }
  }
}
node {
  name: "dnn/input_from_feature_columns/input_layer/credit_rating_indicator/strided_slice/stack_1"
  op: "Const"
  attr {
    key: "_output_shapes"
    value {
      list {
        shape {
          dim {
            size: 1
          }
        }
      }
    }
  }
  attr {
    key: "dtype"
    value {
      type: DT_INT32
    }
  }
  attr {
    key: "value"
    value {
      tensor {
        dtype: DT_INT32
        tensor_shape {
          dim {
            size: 1
          }
        }
        int_val: 1
      }
    }
  }
}
node {
  name: "dnn/input_from_feature_columns/input_layer/credit_rating_indicator/strided_slice/stack_2"
  op: "Const"
  attr {
    key: "_output_shapes"
    value {
      list {
        shape {
          dim {
            size: 1
          }
        }
      }
    }
  }
  attr {
    key: "dtype"
    value {
      type: DT_INT32
    }
  }
  attr {
    key: "value"
    value {
      tensor {
        dtype: DT_INT32
        tensor_shape {
          dim {
            size: 1
          }
        }
        int_val: 1
      }
    }
  }
}
node {
  name: "dnn/input_from_feature_columns/input_layer/credit_rating_indicator/strided_slice"
  op: "StridedSlice"
  input: "dnn/input_from_feature_columns/input_layer/credit_rating_indicator/Shape"
  input: "dnn/input_from_feature_columns/input_layer/credit_rating_indicator/strided_slice/stack"
  input: "dnn/input_from_feature_columns/input_layer/credit_rating_indicator/strided_slice/stack_1"
  input: "dnn/input_from_feature_columns/input_layer/credit_rating_indicator/strided_slice/stack_2"
  attr {
    key: "Index"
    value {
      type: DT_INT32
    }
  }
  attr {
    key: "T"
    value {
      type: DT_INT32
    }
  }
  attr {
    key: "_output_shapes"
    value {
      list {
        shape {
        }
      }
    }
  }
  attr {
    key: "begin_mask"
    value {
      i: 0
    }
  }
  attr {
    key: "ellipsis_mask"
    value {
      i: 0
    }
  }
  attr {
    key: "end_mask"
    value {
      i: 0
    }
  }
  attr {
    key: "new_axis_mask"
    value {
      i: 0
    }
  }
  attr {
    key: "shrink_axis_mask"
    value {
      i: 1
    }
  }
}
node {
  name: "dnn/input_from_feature_columns/input_layer/credit_rating_indicator/Reshape/shape/1"
  op: "Const"
  attr {
    key: "_output_shapes"
    value {
      list {
        shape {
        }
      }
    }
  }
  attr {
    key: "dtype"
    value {
      type: DT_INT32
    }
  }
  attr {
    key: "value"
    value {
      tensor {
        dtype: DT_INT32
        tensor_shape {
        }
        int_val: 12
      }
    }
  }
}
node {
  name: "dnn/input_from_feature_columns/input_layer/credit_rating_indicator/Reshape/shape"
  op: "Pack"
  input: "dnn/input_from_feature_columns/input_layer/credit_rating_indicator/strided_slice"
  input: "dnn/input_from_feature_columns/input_layer/credit_rating_indicator/Reshape/shape/1"
  attr {
    key: "N"
    value {
      i: 2
    }
  }
  attr {
    key: "T"
    value {
      type: DT_INT32
    }
  }
  attr {
    key: "_output_shapes"
    value {
      list {
        shape {
          dim {
            size: 2
          }
        }
      }
    }
  }
  attr {
    key: "axis"
    value {
      i: 0
    }
  }
}
node {
  name: "dnn/input_from_feature_columns/input_layer/credit_rating_indicator/Reshape"
  op: "Reshape"
  input: "dnn/input_from_feature_columns/input_layer/credit_rating_indicator/Sum"
  input: "dnn/input_from_feature_columns/input_layer/credit_rating_indicator/Reshape/shape"
  attr {
    key: "T"
    value {
      type: DT_FLOAT
    }
  }
  attr {
    key: "Tshape"
    value {
      type: DT_INT32
    }
  }
  attr {
    key: "_output_shapes"
    value {
      list {
        shape {
          dim {
            size: -1
          }
          dim {
            size: 12
          }
        }
      }
    }
  }
}
node {
  name: "dnn/input_from_feature_columns/input_layer/curr_period_fc/ExpandDims/dim"
  op: "Const"
  attr {
    key: "_output_shapes"
    value {
      list {
        shape {
        }
      }
    }
  }
  attr {
    key: "dtype"
    value {
      type: DT_INT32
    }
  }
  attr {
    key: "value"
    value {
      tensor {
        dtype: DT_INT32
        tensor_shape {
        }
        int_val: -1
      }
    }
  }
}
node {
  name: "dnn/input_from_feature_columns/input_layer/curr_period_fc/ExpandDims"
  op: "ExpandDims"
  input: "IteratorGetNext:6"
  input: "dnn/input_from_feature_columns/input_layer/curr_period_fc/ExpandDims/dim"
  attr {
    key: "T"
    value {
      type: DT_INT32
    }
  }
  attr {
    key: "Tdim"
    value {
      type: DT_INT32
    }
  }
  attr {
    key: "_output_shapes"
    value {
      list {
        shape {
          dim {
            size: -1
          }
          dim {
            size: 1
          }
        }
      }
    }
  }
}
node {
  name: "dnn/input_from_feature_columns/input_layer/curr_period_fc/ToFloat"
  op: "Cast"
  input: "dnn/input_from_feature_columns/input_layer/curr_period_fc/ExpandDims"
  attr {
    key: "DstT"
    value {
      type: DT_FLOAT
    }
  }
  attr {
    key: "SrcT"
    value {
      type: DT_INT32
    }
  }
  attr {
    key: "_output_shapes"
    value {
      list {
        shape {
          dim {
            size: -1
          }
          dim {
            size: 1
          }
        }
      }
    }
  }
}
node {
  name: "dnn/input_from_feature_columns/input_layer/curr_period_fc/Shape"
  op: "Shape"
  input: "dnn/input_from_feature_columns/input_layer/curr_period_fc/ToFloat"
  attr {
    key: "T"
    value {
      type: DT_FLOAT
    }
  }
  attr {
    key: "_output_shapes"
    value {
      list {
        shape {
          dim {
            size: 2
          }
        }
      }
    }
  }
  attr {
    key: "out_type"
    value {
      type: DT_INT32
    }
  }
}
node {
  name: "dnn/input_from_feature_columns/input_layer/curr_period_fc/strided_slice/stack"
  op: "Const"
  attr {
    key: "_output_shapes"
    value {
      list {
        shape {
          dim {
            size: 1
          }
        }
      }
    }
  }
  attr {
    key: "dtype"
    value {
      type: DT_INT32
    }
  }
  attr {
    key: "value"
    value {
      tensor {
        dtype: DT_INT32
        tensor_shape {
          dim {
            size: 1
          }
        }
        int_val: 0
      }
    }
  }
}
node {
  name: "dnn/input_from_feature_columns/input_layer/curr_period_fc/strided_slice/stack_1"
  op: "Const"
  attr {
    key: "_output_shapes"
    value {
      list {
        shape {
          dim {
            size: 1
          }
        }
      }
    }
  }
  attr {
    key: "dtype"
    value {
      type: DT_INT32
    }
  }
  attr {
    key: "value"
    value {
      tensor {
        dtype: DT_INT32
        tensor_shape {
          dim {
            size: 1
          }
        }
        int_val: 1
      }
    }
  }
}
node {
  name: "dnn/input_from_feature_columns/input_layer/curr_period_fc/strided_slice/stack_2"
  op: "Const"
  attr {
    key: "_output_shapes"
    value {
      list {
        shape {
          dim {
            size: 1
          }
        }
      }
    }
  }
  attr {
    key: "dtype"
    value {
      type: DT_INT32
    }
  }
  attr {
    key: "value"
    value {
      tensor {
        dtype: DT_INT32
        tensor_shape {
          dim {
            size: 1
          }
        }
        int_val: 1
      }
    }
  }
}
node {
  name: "dnn/input_from_feature_columns/input_layer/curr_period_fc/strided_slice"
  op: "StridedSlice"
  input: "dnn/input_from_feature_columns/input_layer/curr_period_fc/Shape"
  input: "dnn/input_from_feature_columns/input_layer/curr_period_fc/strided_slice/stack"
  input: "dnn/input_from_feature_columns/input_layer/curr_period_fc/strided_slice/stack_1"
  input: "dnn/input_from_feature_columns/input_layer/curr_period_fc/strided_slice/stack_2"
  attr {
    key: "Index"
    value {
      type: DT_INT32
    }
  }
  attr {
    key: "T"
    value {
      type: DT_INT32
    }
  }
  attr {
    key: "_output_shapes"
    value {
      list {
        shape {
        }
      }
    }
  }
  attr {
    key: "begin_mask"
    value {
      i: 0
    }
  }
  attr {
    key: "ellipsis_mask"
    value {
      i: 0
    }
  }
  attr {
    key: "end_mask"
    value {
      i: 0
    }
  }
  attr {
    key: "new_axis_mask"
    value {
      i: 0
    }
  }
  attr {
    key: "shrink_axis_mask"
    value {
      i: 1
    }
  }
}
node {
  name: "dnn/input_from_feature_columns/input_layer/curr_period_fc/Reshape/shape/1"
  op: "Const"
  attr {
    key: "_output_shapes"
    value {
      list {
        shape {
        }
      }
    }
  }
  attr {
    key: "dtype"
    value {
      type: DT_INT32
    }
  }
  attr {
    key: "value"
    value {
      tensor {
        dtype: DT_INT32
        tensor_shape {
        }
        int_val: 1
      }
    }
  }
}
node {
  name: "dnn/input_from_feature_columns/input_layer/curr_period_fc/Reshape/shape"
  op: "Pack"
  input: "dnn/input_from_feature_columns/input_layer/curr_period_fc/strided_slice"
  input: "dnn/input_from_feature_columns/input_layer/curr_period_fc/Reshape/shape/1"
  attr {
    key: "N"
    value {
      i: 2
    }
  }
  attr {
    key: "T"
    value {
      type: DT_INT32
    }
  }
  attr {
    key: "_output_shapes"
    value {
      list {
        shape {
          dim {
            size: 2
          }
        }
      }
    }
  }
  attr {
    key: "axis"
    value {
      i: 0
    }
  }
}
node {
  name: "dnn/input_from_feature_columns/input_layer/curr_period_fc/Reshape"
  op: "Reshape"
  input: "dnn/input_from_feature_columns/input_layer/curr_period_fc/ToFloat"
  input: "dnn/input_from_feature_columns/input_layer/curr_period_fc/Reshape/shape"
  attr {
    key: "T"
    value {
      type: DT_FLOAT
    }
  }
  attr {
    key: "Tshape"
    value {
      type: DT_INT32
    }
  }
  attr {
    key: "_output_shapes"
    value {
      list {
        shape {
          dim {
            size: -1
          }
          dim {
            size: 1
          }
        }
      }
    }
  }
}
node {
  name: "dnn/input_from_feature_columns/input_layer/curr_period_ly/ExpandDims/dim"
  op: "Const"
  attr {
    key: "_output_shapes"
    value {
      list {
        shape {
        }
      }
    }
  }
  attr {
    key: "dtype"
    value {
      type: DT_INT32
    }
  }
  attr {
    key: "value"
    value {
      tensor {
        dtype: DT_INT32
        tensor_shape {
        }
        int_val: -1
      }
    }
  }
}
node {
  name: "dnn/input_from_feature_columns/input_layer/curr_period_ly/ExpandDims"
  op: "ExpandDims"
  input: "IteratorGetNext:7"
  input: "dnn/input_from_feature_columns/input_layer/curr_period_ly/ExpandDims/dim"
  attr {
    key: "T"
    value {
      type: DT_INT32
    }
  }
  attr {
    key: "Tdim"
    value {
      type: DT_INT32
    }
  }
  attr {
    key: "_output_shapes"
    value {
      list {
        shape {
          dim {
            size: -1
          }
          dim {
            size: 1
          }
        }
      }
    }
  }
}
node {
  name: "dnn/input_from_feature_columns/input_layer/curr_period_ly/ToFloat"
  op: "Cast"
  input: "dnn/input_from_feature_columns/input_layer/curr_period_ly/ExpandDims"
  attr {
    key: "DstT"
    value {
      type: DT_FLOAT
    }
  }
  attr {
    key: "SrcT"
    value {
      type: DT_INT32
    }
  }
  attr {
    key: "_output_shapes"
    value {
      list {
        shape {
          dim {
            size: -1
          }
          dim {
            size: 1
          }
        }
      }
    }
  }
}
node {
  name: "dnn/input_from_feature_columns/input_layer/curr_period_ly/Shape"
  op: "Shape"
  input: "dnn/input_from_feature_columns/input_layer/curr_period_ly/ToFloat"
  attr {
    key: "T"
    value {
      type: DT_FLOAT
    }
  }
  attr {
    key: "_output_shapes"
    value {
      list {
        shape {
          dim {
            size: 2
          }
        }
      }
    }
  }
  attr {
    key: "out_type"
    value {
      type: DT_INT32
    }
  }
}
node {
  name: "dnn/input_from_feature_columns/input_layer/curr_period_ly/strided_slice/stack"
  op: "Const"
  attr {
    key: "_output_shapes"
    value {
      list {
        shape {
          dim {
            size: 1
          }
        }
      }
    }
  }
  attr {
    key: "dtype"
    value {
      type: DT_INT32
    }
  }
  attr {
    key: "value"
    value {
      tensor {
        dtype: DT_INT32
        tensor_shape {
          dim {
            size: 1
          }
        }
        int_val: 0
      }
    }
  }
}
node {
  name: "dnn/input_from_feature_columns/input_layer/curr_period_ly/strided_slice/stack_1"
  op: "Const"
  attr {
    key: "_output_shapes"
    value {
      list {
        shape {
          dim {
            size: 1
          }
        }
      }
    }
  }
  attr {
    key: "dtype"
    value {
      type: DT_INT32
    }
  }
  attr {
    key: "value"
    value {
      tensor {
        dtype: DT_INT32
        tensor_shape {
          dim {
            size: 1
          }
        }
        int_val: 1
      }
    }
  }
}
node {
  name: "dnn/input_from_feature_columns/input_layer/curr_period_ly/strided_slice/stack_2"
  op: "Const"
  attr {
    key: "_output_shapes"
    value {
      list {
        shape {
          dim {
            size: 1
          }
        }
      }
    }
  }
  attr {
    key: "dtype"
    value {
      type: DT_INT32
    }
  }
  attr {
    key: "value"
    value {
      tensor {
        dtype: DT_INT32
        tensor_shape {
          dim {
            size: 1
          }
        }
        int_val: 1
      }
    }
  }
}
node {
  name: "dnn/input_from_feature_columns/input_layer/curr_period_ly/strided_slice"
  op: "StridedSlice"
  input: "dnn/input_from_feature_columns/input_layer/curr_period_ly/Shape"
  input: "dnn/input_from_feature_columns/input_layer/curr_period_ly/strided_slice/stack"
  input: "dnn/input_from_feature_columns/input_layer/curr_period_ly/strided_slice/stack_1"
  input: "dnn/input_from_feature_columns/input_layer/curr_period_ly/strided_slice/stack_2"
  attr {
    key: "Index"
    value {
      type: DT_INT32
    }
  }
  attr {
    key: "T"
    value {
      type: DT_INT32
    }
  }
  attr {
    key: "_output_shapes"
    value {
      list {
        shape {
        }
      }
    }
  }
  attr {
    key: "begin_mask"
    value {
      i: 0
    }
  }
  attr {
    key: "ellipsis_mask"
    value {
      i: 0
    }
  }
  attr {
    key: "end_mask"
    value {
      i: 0
    }
  }
  attr {
    key: "new_axis_mask"
    value {
      i: 0
    }
  }
  attr {
    key: "shrink_axis_mask"
    value {
      i: 1
    }
  }
}
node {
  name: "dnn/input_from_feature_columns/input_layer/curr_period_ly/Reshape/shape/1"
  op: "Const"
  attr {
    key: "_output_shapes"
    value {
      list {
        shape {
        }
      }
    }
  }
  attr {
    key: "dtype"
    value {
      type: DT_INT32
    }
  }
  attr {
    key: "value"
    value {
      tensor {
        dtype: DT_INT32
        tensor_shape {
        }
        int_val: 1
      }
    }
  }
}
node {
  name: "dnn/input_from_feature_columns/input_layer/curr_period_ly/Reshape/shape"
  op: "Pack"
  input: "dnn/input_from_feature_columns/input_layer/curr_period_ly/strided_slice"
  input: "dnn/input_from_feature_columns/input_layer/curr_period_ly/Reshape/shape/1"
  attr {
    key: "N"
    value {
      i: 2
    }
  }
  attr {
    key: "T"
    value {
      type: DT_INT32
    }
  }
  attr {
    key: "_output_shapes"
    value {
      list {
        shape {
          dim {
            size: 2
          }
        }
      }
    }
  }
  attr {
    key: "axis"
    value {
      i: 0
    }
  }
}
node {
  name: "dnn/input_from_feature_columns/input_layer/curr_period_ly/Reshape"
  op: "Reshape"
  input: "dnn/input_from_feature_columns/input_layer/curr_period_ly/ToFloat"
  input: "dnn/input_from_feature_columns/input_layer/curr_period_ly/Reshape/shape"
  attr {
    key: "T"
    value {
      type: DT_FLOAT
    }
  }
  attr {
    key: "Tshape"
    value {
      type: DT_INT32
    }
  }
  attr {
    key: "_output_shapes"
    value {
      list {
        shape {
          dim {
            size: -1
          }
          dim {
            size: 1
          }
        }
      }
    }
  }
}
node {
  name: "dnn/input_from_feature_columns/input_layer/employees/ExpandDims/dim"
  op: "Const"
  attr {
    key: "_output_shapes"
    value {
      list {
        shape {
        }
      }
    }
  }
  attr {
    key: "dtype"
    value {
      type: DT_INT32
    }
  }
  attr {
    key: "value"
    value {
      tensor {
        dtype: DT_INT32
        tensor_shape {
        }
        int_val: -1
      }
    }
  }
}
node {
  name: "dnn/input_from_feature_columns/input_layer/employees/ExpandDims"
  op: "ExpandDims"
  input: "IteratorGetNext:9"
  input: "dnn/input_from_feature_columns/input_layer/employees/ExpandDims/dim"
  attr {
    key: "T"
    value {
      type: DT_INT32
    }
  }
  attr {
    key: "Tdim"
    value {
      type: DT_INT32
    }
  }
  attr {
    key: "_output_shapes"
    value {
      list {
        shape {
          dim {
            size: -1
          }
          dim {
            size: 1
          }
        }
      }
    }
  }
}
node {
  name: "dnn/input_from_feature_columns/input_layer/employees/ToFloat"
  op: "Cast"
  input: "dnn/input_from_feature_columns/input_layer/employees/ExpandDims"
  attr {
    key: "DstT"
    value {
      type: DT_FLOAT
    }
  }
  attr {
    key: "SrcT"
    value {
      type: DT_INT32
    }
  }
  attr {
    key: "_output_shapes"
    value {
      list {
        shape {
          dim {
            size: -1
          }
          dim {
            size: 1
          }
        }
      }
    }
  }
}
node {
  name: "dnn/input_from_feature_columns/input_layer/employees/Shape"
  op: "Shape"
  input: "dnn/input_from_feature_columns/input_layer/employees/ToFloat"
  attr {
    key: "T"
    value {
      type: DT_FLOAT
    }
  }
  attr {
    key: "_output_shapes"
    value {
      list {
        shape {
          dim {
            size: 2
          }
        }
      }
    }
  }
  attr {
    key: "out_type"
    value {
      type: DT_INT32
    }
  }
}
node {
  name: "dnn/input_from_feature_columns/input_layer/employees/strided_slice/stack"
  op: "Const"
  attr {
    key: "_output_shapes"
    value {
      list {
        shape {
          dim {
            size: 1
          }
        }
      }
    }
  }
  attr {
    key: "dtype"
    value {
      type: DT_INT32
    }
  }
  attr {
    key: "value"
    value {
      tensor {
        dtype: DT_INT32
        tensor_shape {
          dim {
            size: 1
          }
        }
        int_val: 0
      }
    }
  }
}
node {
  name: "dnn/input_from_feature_columns/input_layer/employees/strided_slice/stack_1"
  op: "Const"
  attr {
    key: "_output_shapes"
    value {
      list {
        shape {
          dim {
            size: 1
          }
        }
      }
    }
  }
  attr {
    key: "dtype"
    value {
      type: DT_INT32
    }
  }
  attr {
    key: "value"
    value {
      tensor {
        dtype: DT_INT32
        tensor_shape {
          dim {
            size: 1
          }
        }
        int_val: 1
      }
    }
  }
}
node {
  name: "dnn/input_from_feature_columns/input_layer/employees/strided_slice/stack_2"
  op: "Const"
  attr {
    key: "_output_shapes"
    value {
      list {
        shape {
          dim {
            size: 1
          }
        }
      }
    }
  }
  attr {
    key: "dtype"
    value {
      type: DT_INT32
    }
  }
  attr {
    key: "value"
    value {
      tensor {
        dtype: DT_INT32
        tensor_shape {
          dim {
            size: 1
          }
        }
        int_val: 1
      }
    }
  }
}
node {
  name: "dnn/input_from_feature_columns/input_layer/employees/strided_slice"
  op: "StridedSlice"
  input: "dnn/input_from_feature_columns/input_layer/employees/Shape"
  input: "dnn/input_from_feature_columns/input_layer/employees/strided_slice/stack"
  input: "dnn/input_from_feature_columns/input_layer/employees/strided_slice/stack_1"
  input: "dnn/input_from_feature_columns/input_layer/employees/strided_slice/stack_2"
  attr {
    key: "Index"
    value {
      type: DT_INT32
    }
  }
  attr {
    key: "T"
    value {
      type: DT_INT32
    }
  }
  attr {
    key: "_output_shapes"
    value {
      list {
        shape {
        }
      }
    }
  }
  attr {
    key: "begin_mask"
    value {
      i: 0
    }
  }
  attr {
    key: "ellipsis_mask"
    value {
      i: 0
    }
  }
  attr {
    key: "end_mask"
    value {
      i: 0
    }
  }
  attr {
    key: "new_axis_mask"
    value {
      i: 0
    }
  }
  attr {
    key: "shrink_axis_mask"
    value {
      i: 1
    }
  }
}
node {
  name: "dnn/input_from_feature_columns/input_layer/employees/Reshape/shape/1"
  op: "Const"
  attr {
    key: "_output_shapes"
    value {
      list {
        shape {
        }
      }
    }
  }
  attr {
    key: "dtype"
    value {
      type: DT_INT32
    }
  }
  attr {
    key: "value"
    value {
      tensor {
        dtype: DT_INT32
        tensor_shape {
        }
        int_val: 1
      }
    }
  }
}
node {
  name: "dnn/input_from_feature_columns/input_layer/employees/Reshape/shape"
  op: "Pack"
  input: "dnn/input_from_feature_columns/input_layer/employees/strided_slice"
  input: "dnn/input_from_feature_columns/input_layer/employees/Reshape/shape/1"
  attr {
    key: "N"
    value {
      i: 2
    }
  }
  attr {
    key: "T"
    value {
      type: DT_INT32
    }
  }
  attr {
    key: "_output_shapes"
    value {
      list {
        shape {
          dim {
            size: 2
          }
        }
      }
    }
  }
  attr {
    key: "axis"
    value {
      i: 0
    }
  }
}
node {
  name: "dnn/input_from_feature_columns/input_layer/employees/Reshape"
  op: "Reshape"
  input: "dnn/input_from_feature_columns/input_layer/employees/ToFloat"
  input: "dnn/input_from_feature_columns/input_layer/employees/Reshape/shape"
  attr {
    key: "T"
    value {
      type: DT_FLOAT
    }
  }
  attr {
    key: "Tshape"
    value {
      type: DT_INT32
    }
  }
  attr {
    key: "_output_shapes"
    value {
      list {
        shape {
          dim {
            size: -1
          }
          dim {
            size: 1
          }
        }
      }
    }
  }
}
node {
  name: "dnn/input_from_feature_columns/input_layer/last_period/ExpandDims/dim"
  op: "Const"
  attr {
    key: "_output_shapes"
    value {
      list {
        shape {
        }
      }
    }
  }
  attr {
    key: "dtype"
    value {
      type: DT_INT32
    }
  }
  attr {
    key: "value"
    value {
      tensor {
        dtype: DT_INT32
        tensor_shape {
        }
        int_val: -1
      }
    }
  }
}
node {
  name: "dnn/input_from_feature_columns/input_layer/last_period/ExpandDims"
  op: "ExpandDims"
  input: "IteratorGetNext:10"
  input: "dnn/input_from_feature_columns/input_layer/last_period/ExpandDims/dim"
  attr {
    key: "T"
    value {
      type: DT_INT32
    }
  }
  attr {
    key: "Tdim"
    value {
      type: DT_INT32
    }
  }
  attr {
    key: "_output_shapes"
    value {
      list {
        shape {
          dim {
            size: -1
          }
          dim {
            size: 1
          }
        }
      }
    }
  }
}
node {
  name: "dnn/input_from_feature_columns/input_layer/last_period/ToFloat"
  op: "Cast"
  input: "dnn/input_from_feature_columns/input_layer/last_period/ExpandDims"
  attr {
    key: "DstT"
    value {
      type: DT_FLOAT
    }
  }
  attr {
    key: "SrcT"
    value {
      type: DT_INT32
    }
  }
  attr {
    key: "_output_shapes"
    value {
      list {
        shape {
          dim {
            size: -1
          }
          dim {
            size: 1
          }
        }
      }
    }
  }
}
node {
  name: "dnn/input_from_feature_columns/input_layer/last_period/Shape"
  op: "Shape"
  input: "dnn/input_from_feature_columns/input_layer/last_period/ToFloat"
  attr {
    key: "T"
    value {
      type: DT_FLOAT
    }
  }
  attr {
    key: "_output_shapes"
    value {
      list {
        shape {
          dim {
            size: 2
          }
        }
      }
    }
  }
  attr {
    key: "out_type"
    value {
      type: DT_INT32
    }
  }
}
node {
  name: "dnn/input_from_feature_columns/input_layer/last_period/strided_slice/stack"
  op: "Const"
  attr {
    key: "_output_shapes"
    value {
      list {
        shape {
          dim {
            size: 1
          }
        }
      }
    }
  }
  attr {
    key: "dtype"
    value {
      type: DT_INT32
    }
  }
  attr {
    key: "value"
    value {
      tensor {
        dtype: DT_INT32
        tensor_shape {
          dim {
            size: 1
          }
        }
        int_val: 0
      }
    }
  }
}
node {
  name: "dnn/input_from_feature_columns/input_layer/last_period/strided_slice/stack_1"
  op: "Const"
  attr {
    key: "_output_shapes"
    value {
      list {
        shape {
          dim {
            size: 1
          }
        }
      }
    }
  }
  attr {
    key: "dtype"
    value {
      type: DT_INT32
    }
  }
  attr {
    key: "value"
    value {
      tensor {
        dtype: DT_INT32
        tensor_shape {
          dim {
            size: 1
          }
        }
        int_val: 1
      }
    }
  }
}
node {
  name: "dnn/input_from_feature_columns/input_layer/last_period/strided_slice/stack_2"
  op: "Const"
  attr {
    key: "_output_shapes"
    value {
      list {
        shape {
          dim {
            size: 1
          }
        }
      }
    }
  }
  attr {
    key: "dtype"
    value {
      type: DT_INT32
    }
  }
  attr {
    key: "value"
    value {
      tensor {
        dtype: DT_INT32
        tensor_shape {
          dim {
            size: 1
          }
        }
        int_val: 1
      }
    }
  }
}
node {
  name: "dnn/input_from_feature_columns/input_layer/last_period/strided_slice"
  op: "StridedSlice"
  input: "dnn/input_from_feature_columns/input_layer/last_period/Shape"
  input: "dnn/input_from_feature_columns/input_layer/last_period/strided_slice/stack"
  input: "dnn/input_from_feature_columns/input_layer/last_period/strided_slice/stack_1"
  input: "dnn/input_from_feature_columns/input_layer/last_period/strided_slice/stack_2"
  attr {
    key: "Index"
    value {
      type: DT_INT32
    }
  }
  attr {
    key: "T"
    value {
      type: DT_INT32
    }
  }
  attr {
    key: "_output_shapes"
    value {
      list {
        shape {
        }
      }
    }
  }
  attr {
    key: "begin_mask"
    value {
      i: 0
    }
  }
  attr {
    key: "ellipsis_mask"
    value {
      i: 0
    }
  }
  attr {
    key: "end_mask"
    value {
      i: 0
    }
  }
  attr {
    key: "new_axis_mask"
    value {
      i: 0
    }
  }
  attr {
    key: "shrink_axis_mask"
    value {
      i: 1
    }
  }
}
node {
  name: "dnn/input_from_feature_columns/input_layer/last_period/Reshape/shape/1"
  op: "Const"
  attr {
    key: "_output_shapes"
    value {
      list {
        shape {
        }
      }
    }
  }
  attr {
    key: "dtype"
    value {
      type: DT_INT32
    }
  }
  attr {
    key: "value"
    value {
      tensor {
        dtype: DT_INT32
        tensor_shape {
        }
        int_val: 1
      }
    }
  }
}
node {
  name: "dnn/input_from_feature_columns/input_layer/last_period/Reshape/shape"
  op: "Pack"
  input: "dnn/input_from_feature_columns/input_layer/last_period/strided_slice"
  input: "dnn/input_from_feature_columns/input_layer/last_period/Reshape/shape/1"
  attr {
    key: "N"
    value {
      i: 2
    }
  }
  attr {
    key: "T"
    value {
      type: DT_INT32
    }
  }
  attr {
    key: "_output_shapes"
    value {
      list {
        shape {
          dim {
            size: 2
          }
        }
      }
    }
  }
  attr {
    key: "axis"
    value {
      i: 0
    }
  }
}
node {
  name: "dnn/input_from_feature_columns/input_layer/last_period/Reshape"
  op: "Reshape"
  input: "dnn/input_from_feature_columns/input_layer/last_period/ToFloat"
  input: "dnn/input_from_feature_columns/input_layer/last_period/Reshape/shape"
  attr {
    key: "T"
    value {
      type: DT_FLOAT
    }
  }
  attr {
    key: "Tshape"
    value {
      type: DT_INT32
    }
  }
  attr {
    key: "_output_shapes"
    value {
      list {
        shape {
          dim {
            size: -1
          }
          dim {
            size: 1
          }
        }
      }
    }
  }
}
node {
  name: "dnn/input_from_feature_columns/input_layer/ly_spend/ExpandDims/dim"
  op: "Const"
  attr {
    key: "_output_shapes"
    value {
      list {
        shape {
        }
      }
    }
  }
  attr {
    key: "dtype"
    value {
      type: DT_INT32
    }
  }
  attr {
    key: "value"
    value {
      tensor {
        dtype: DT_INT32
        tensor_shape {
        }
        int_val: -1
      }
    }
  }
}
node {
  name: "dnn/input_from_feature_columns/input_layer/ly_spend/ExpandDims"
  op: "ExpandDims"
  input: "IteratorGetNext:11"
  input: "dnn/input_from_feature_columns/input_layer/ly_spend/ExpandDims/dim"
  attr {
    key: "T"
    value {
      type: DT_INT32
    }
  }
  attr {
    key: "Tdim"
    value {
      type: DT_INT32
    }
  }
  attr {
    key: "_output_shapes"
    value {
      list {
        shape {
          dim {
            size: -1
          }
          dim {
            size: 1
          }
        }
      }
    }
  }
}
node {
  name: "dnn/input_from_feature_columns/input_layer/ly_spend/ToFloat"
  op: "Cast"
  input: "dnn/input_from_feature_columns/input_layer/ly_spend/ExpandDims"
  attr {
    key: "DstT"
    value {
      type: DT_FLOAT
    }
  }
  attr {
    key: "SrcT"
    value {
      type: DT_INT32
    }
  }
  attr {
    key: "_output_shapes"
    value {
      list {
        shape {
          dim {
            size: -1
          }
          dim {
            size: 1
          }
        }
      }
    }
  }
}
node {
  name: "dnn/input_from_feature_columns/input_layer/ly_spend/Shape"
  op: "Shape"
  input: "dnn/input_from_feature_columns/input_layer/ly_spend/ToFloat"
  attr {
    key: "T"
    value {
      type: DT_FLOAT
    }
  }
  attr {
    key: "_output_shapes"
    value {
      list {
        shape {
          dim {
            size: 2
          }
        }
      }
    }
  }
  attr {
    key: "out_type"
    value {
      type: DT_INT32
    }
  }
}
node {
  name: "dnn/input_from_feature_columns/input_layer/ly_spend/strided_slice/stack"
  op: "Const"
  attr {
    key: "_output_shapes"
    value {
      list {
        shape {
          dim {
            size: 1
          }
        }
      }
    }
  }
  attr {
    key: "dtype"
    value {
      type: DT_INT32
    }
  }
  attr {
    key: "value"
    value {
      tensor {
        dtype: DT_INT32
        tensor_shape {
          dim {
            size: 1
          }
        }
        int_val: 0
      }
    }
  }
}
node {
  name: "dnn/input_from_feature_columns/input_layer/ly_spend/strided_slice/stack_1"
  op: "Const"
  attr {
    key: "_output_shapes"
    value {
      list {
        shape {
          dim {
            size: 1
          }
        }
      }
    }
  }
  attr {
    key: "dtype"
    value {
      type: DT_INT32
    }
  }
  attr {
    key: "value"
    value {
      tensor {
        dtype: DT_INT32
        tensor_shape {
          dim {
            size: 1
          }
        }
        int_val: 1
      }
    }
  }
}
node {
  name: "dnn/input_from_feature_columns/input_layer/ly_spend/strided_slice/stack_2"
  op: "Const"
  attr {
    key: "_output_shapes"
    value {
      list {
        shape {
          dim {
            size: 1
          }
        }
      }
    }
  }
  attr {
    key: "dtype"
    value {
      type: DT_INT32
    }
  }
  attr {
    key: "value"
    value {
      tensor {
        dtype: DT_INT32
        tensor_shape {
          dim {
            size: 1
          }
        }
        int_val: 1
      }
    }
  }
}
node {
  name: "dnn/input_from_feature_columns/input_layer/ly_spend/strided_slice"
  op: "StridedSlice"
  input: "dnn/input_from_feature_columns/input_layer/ly_spend/Shape"
  input: "dnn/input_from_feature_columns/input_layer/ly_spend/strided_slice/stack"
  input: "dnn/input_from_feature_columns/input_layer/ly_spend/strided_slice/stack_1"
  input: "dnn/input_from_feature_columns/input_layer/ly_spend/strided_slice/stack_2"
  attr {
    key: "Index"
    value {
      type: DT_INT32
    }
  }
  attr {
    key: "T"
    value {
      type: DT_INT32
    }
  }
  attr {
    key: "_output_shapes"
    value {
      list {
        shape {
        }
      }
    }
  }
  attr {
    key: "begin_mask"
    value {
      i: 0
    }
  }
  attr {
    key: "ellipsis_mask"
    value {
      i: 0
    }
  }
  attr {
    key: "end_mask"
    value {
      i: 0
    }
  }
  attr {
    key: "new_axis_mask"
    value {
      i: 0
    }
  }
  attr {
    key: "shrink_axis_mask"
    value {
      i: 1
    }
  }
}
node {
  name: "dnn/input_from_feature_columns/input_layer/ly_spend/Reshape/shape/1"
  op: "Const"
  attr {
    key: "_output_shapes"
    value {
      list {
        shape {
        }
      }
    }
  }
  attr {
    key: "dtype"
    value {
      type: DT_INT32
    }
  }
  attr {
    key: "value"
    value {
      tensor {
        dtype: DT_INT32
        tensor_shape {
        }
        int_val: 1
      }
    }
  }
}
node {
  name: "dnn/input_from_feature_columns/input_layer/ly_spend/Reshape/shape"
  op: "Pack"
  input: "dnn/input_from_feature_columns/input_layer/ly_spend/strided_slice"
  input: "dnn/input_from_feature_columns/input_layer/ly_spend/Reshape/shape/1"
  attr {
    key: "N"
    value {
      i: 2
    }
  }
  attr {
    key: "T"
    value {
      type: DT_INT32
    }
  }
  attr {
    key: "_output_shapes"
    value {
      list {
        shape {
          dim {
            size: 2
          }
        }
      }
    }
  }
  attr {
    key: "axis"
    value {
      i: 0
    }
  }
}
node {
  name: "dnn/input_from_feature_columns/input_layer/ly_spend/Reshape"
  op: "Reshape"
  input: "dnn/input_from_feature_columns/input_layer/ly_spend/ToFloat"
  input: "dnn/input_from_feature_columns/input_layer/ly_spend/Reshape/shape"
  attr {
    key: "T"
    value {
      type: DT_FLOAT
    }
  }
  attr {
    key: "Tshape"
    value {
      type: DT_INT32
    }
  }
  attr {
    key: "_output_shapes"
    value {
      list {
        shape {
          dim {
            size: -1
          }
          dim {
            size: 1
          }
        }
      }
    }
  }
}
node {
  name: "dnn/input_from_feature_columns/input_layer/make_budget_lp_indicator/ExpandDims/dim"
  op: "Const"
  attr {
    key: "_output_shapes"
    value {
      list {
        shape {
        }
      }
    }
  }
  attr {
    key: "dtype"
    value {
      type: DT_INT32
    }
  }
  attr {
    key: "value"
    value {
      tensor {
        dtype: DT_INT32
        tensor_shape {
        }
        int_val: -1
      }
    }
  }
}
node {
  name: "dnn/input_from_feature_columns/input_layer/make_budget_lp_indicator/ExpandDims"
  op: "ExpandDims"
  input: "IteratorGetNext:12"
  input: "dnn/input_from_feature_columns/input_layer/make_budget_lp_indicator/ExpandDims/dim"
  attr {
    key: "T"
    value {
      type: DT_STRING
    }
  }
  attr {
    key: "Tdim"
    value {
      type: DT_INT32
    }
  }
  attr {
    key: "_output_shapes"
    value {
      list {
        shape {
          dim {
            size: -1
          }
          dim {
            size: 1
          }
        }
      }
    }
  }
}
node {
  name: "dnn/input_from_feature_columns/input_layer/make_budget_lp_indicator/to_sparse_input/ignore_value/x"
  op: "Const"
  attr {
    key: "_output_shapes"
    value {
      list {
        shape {
        }
      }
    }
  }
  attr {
    key: "dtype"
    value {
      type: DT_STRING
    }
  }
  attr {
    key: "value"
    value {
      tensor {
        dtype: DT_STRING
        tensor_shape {
        }
        string_val: ""
      }
    }
  }
}
node {
  name: "dnn/input_from_feature_columns/input_layer/make_budget_lp_indicator/to_sparse_input/NotEqual"
  op: "NotEqual"
  input: "dnn/input_from_feature_columns/input_layer/make_budget_lp_indicator/ExpandDims"
  input: "dnn/input_from_feature_columns/input_layer/make_budget_lp_indicator/to_sparse_input/ignore_value/x"
  attr {
    key: "T"
    value {
      type: DT_STRING
    }
  }
  attr {
    key: "_output_shapes"
    value {
      list {
        shape {
          dim {
            size: -1
          }
          dim {
            size: 1
          }
        }
      }
    }
  }
}
node {
  name: "dnn/input_from_feature_columns/input_layer/make_budget_lp_indicator/to_sparse_input/indices"
  op: "Where"
  input: "dnn/input_from_feature_columns/input_layer/make_budget_lp_indicator/to_sparse_input/NotEqual"
  attr {
    key: "T"
    value {
      type: DT_BOOL
    }
  }
  attr {
    key: "_output_shapes"
    value {
      list {
        shape {
          dim {
            size: -1
          }
          dim {
            size: 2
          }
        }
      }
    }
  }
}
node {
  name: "dnn/input_from_feature_columns/input_layer/make_budget_lp_indicator/to_sparse_input/values"
  op: "GatherNd"
  input: "dnn/input_from_feature_columns/input_layer/make_budget_lp_indicator/ExpandDims"
  input: "dnn/input_from_feature_columns/input_layer/make_budget_lp_indicator/to_sparse_input/indices"
  attr {
    key: "Tindices"
    value {
      type: DT_INT64
    }
  }
  attr {
    key: "Tparams"
    value {
      type: DT_STRING
    }
  }
  attr {
    key: "_output_shapes"
    value {
      list {
        shape {
          dim {
            size: -1
          }
        }
      }
    }
  }
}
node {
  name: "dnn/input_from_feature_columns/input_layer/make_budget_lp_indicator/to_sparse_input/dense_shape"
  op: "Shape"
  input: "dnn/input_from_feature_columns/input_layer/make_budget_lp_indicator/ExpandDims"
  attr {
    key: "T"
    value {
      type: DT_STRING
    }
  }
  attr {
    key: "_output_shapes"
    value {
      list {
        shape {
          dim {
            size: 2
          }
        }
      }
    }
  }
  attr {
    key: "out_type"
    value {
      type: DT_INT64
    }
  }
}
node {
  name: "dnn/input_from_feature_columns/input_layer/make_budget_lp_indicator/make_budget_lp_lookup/Const"
  op: "Const"
  attr {
    key: "_output_shapes"
    value {
      list {
        shape {
          dim {
            size: 2
          }
        }
      }
    }
  }
  attr {
    key: "dtype"
    value {
      type: DT_STRING
    }
  }
  attr {
    key: "value"
    value {
      tensor {
        dtype: DT_STRING
        tensor_shape {
          dim {
            size: 2
          }
        }
        string_val: "y"
        string_val: "n"
      }
    }
  }
}
node {
  name: "dnn/input_from_feature_columns/input_layer/make_budget_lp_indicator/make_budget_lp_lookup/Size"
  op: "Const"
  attr {
    key: "_output_shapes"
    value {
      list {
        shape {
        }
      }
    }
  }
  attr {
    key: "dtype"
    value {
      type: DT_INT32
    }
  }
  attr {
    key: "value"
    value {
      tensor {
        dtype: DT_INT32
        tensor_shape {
        }
        int_val: 2
      }
    }
  }
}
node {
  name: "dnn/input_from_feature_columns/input_layer/make_budget_lp_indicator/make_budget_lp_lookup/range/start"
  op: "Const"
  attr {
    key: "_output_shapes"
    value {
      list {
        shape {
        }
      }
    }
  }
  attr {
    key: "dtype"
    value {
      type: DT_INT32
    }
  }
  attr {
    key: "value"
    value {
      tensor {
        dtype: DT_INT32
        tensor_shape {
        }
        int_val: 0
      }
    }
  }
}
node {
  name: "dnn/input_from_feature_columns/input_layer/make_budget_lp_indicator/make_budget_lp_lookup/range/delta"
  op: "Const"
  attr {
    key: "_output_shapes"
    value {
      list {
        shape {
        }
      }
    }
  }
  attr {
    key: "dtype"
    value {
      type: DT_INT32
    }
  }
  attr {
    key: "value"
    value {
      tensor {
        dtype: DT_INT32
        tensor_shape {
        }
        int_val: 1
      }
    }
  }
}
node {
  name: "dnn/input_from_feature_columns/input_layer/make_budget_lp_indicator/make_budget_lp_lookup/range"
  op: "Range"
  input: "dnn/input_from_feature_columns/input_layer/make_budget_lp_indicator/make_budget_lp_lookup/range/start"
  input: "dnn/input_from_feature_columns/input_layer/make_budget_lp_indicator/make_budget_lp_lookup/Size"
  input: "dnn/input_from_feature_columns/input_layer/make_budget_lp_indicator/make_budget_lp_lookup/range/delta"
  attr {
    key: "Tidx"
    value {
      type: DT_INT32
    }
  }
  attr {
    key: "_output_shapes"
    value {
      list {
        shape {
          dim {
            size: 2
          }
        }
      }
    }
  }
}
node {
  name: "dnn/input_from_feature_columns/input_layer/make_budget_lp_indicator/make_budget_lp_lookup/ToInt64"
  op: "Cast"
  input: "dnn/input_from_feature_columns/input_layer/make_budget_lp_indicator/make_budget_lp_lookup/range"
  attr {
    key: "DstT"
    value {
      type: DT_INT64
    }
  }
  attr {
    key: "SrcT"
    value {
      type: DT_INT32
    }
  }
  attr {
    key: "_output_shapes"
    value {
      list {
        shape {
          dim {
            size: 2
          }
        }
      }
    }
  }
}
node {
  name: "dnn/input_from_feature_columns/input_layer/make_budget_lp_indicator/make_budget_lp_lookup/hash_table"
  op: "HashTableV2"
  attr {
    key: "_output_shapes"
    value {
      list {
        shape {
        }
      }
    }
  }
  attr {
    key: "container"
    value {
      s: ""
    }
  }
  attr {
    key: "key_dtype"
    value {
      type: DT_STRING
    }
  }
  attr {
    key: "shared_name"
    value {
      s: ""
    }
  }
  attr {
    key: "use_node_name_sharing"
    value {
      b: false
    }
  }
  attr {
    key: "value_dtype"
    value {
      type: DT_INT64
    }
  }
}
node {
  name: "dnn/input_from_feature_columns/input_layer/make_budget_lp_indicator/make_budget_lp_lookup/hash_table/Const"
  op: "Const"
  attr {
    key: "_output_shapes"
    value {
      list {
        shape {
        }
      }
    }
  }
  attr {
    key: "dtype"
    value {
      type: DT_INT64
    }
  }
  attr {
    key: "value"
    value {
      tensor {
        dtype: DT_INT64
        tensor_shape {
        }
        int64_val: -1
      }
    }
  }
}
node {
  name: "dnn/input_from_feature_columns/input_layer/make_budget_lp_indicator/make_budget_lp_lookup/hash_table/table_init"
  op: "InitializeTableV2"
  input: "dnn/input_from_feature_columns/input_layer/make_budget_lp_indicator/make_budget_lp_lookup/hash_table"
  input: "dnn/input_from_feature_columns/input_layer/make_budget_lp_indicator/make_budget_lp_lookup/Const"
  input: "dnn/input_from_feature_columns/input_layer/make_budget_lp_indicator/make_budget_lp_lookup/ToInt64"
  attr {
    key: "Tkey"
    value {
      type: DT_STRING
    }
  }
  attr {
    key: "Tval"
    value {
      type: DT_INT64
    }
  }
}
node {
  name: "dnn/input_from_feature_columns/input_layer/make_budget_lp_indicator/hash_table_Lookup"
  op: "LookupTableFindV2"
  input: "dnn/input_from_feature_columns/input_layer/make_budget_lp_indicator/make_budget_lp_lookup/hash_table"
  input: "dnn/input_from_feature_columns/input_layer/make_budget_lp_indicator/to_sparse_input/values"
  input: "dnn/input_from_feature_columns/input_layer/make_budget_lp_indicator/make_budget_lp_lookup/hash_table/Const"
  attr {
    key: "Tin"
    value {
      type: DT_STRING
    }
  }
  attr {
    key: "Tout"
    value {
      type: DT_INT64
    }
  }
  attr {
    key: "_output_shapes"
    value {
      list {
        shape {
          dim {
            size: -1
          }
        }
      }
    }
  }
}
node {
  name: "dnn/input_from_feature_columns/input_layer/make_budget_lp_indicator/SparseToDense/default_value"
  op: "Const"
  attr {
    key: "_output_shapes"
    value {
      list {
        shape {
        }
      }
    }
  }
  attr {
    key: "dtype"
    value {
      type: DT_INT64
    }
  }
  attr {
    key: "value"
    value {
      tensor {
        dtype: DT_INT64
        tensor_shape {
        }
        int64_val: -1
      }
    }
  }
}
node {
  name: "dnn/input_from_feature_columns/input_layer/make_budget_lp_indicator/SparseToDense"
  op: "SparseToDense"
  input: "dnn/input_from_feature_columns/input_layer/make_budget_lp_indicator/to_sparse_input/indices"
  input: "dnn/input_from_feature_columns/input_layer/make_budget_lp_indicator/to_sparse_input/dense_shape"
  input: "dnn/input_from_feature_columns/input_layer/make_budget_lp_indicator/hash_table_Lookup"
  input: "dnn/input_from_feature_columns/input_layer/make_budget_lp_indicator/SparseToDense/default_value"
  attr {
    key: "T"
    value {
      type: DT_INT64
    }
  }
  attr {
    key: "Tindices"
    value {
      type: DT_INT64
    }
  }
  attr {
    key: "_output_shapes"
    value {
      list {
        shape {
          dim {
            size: -1
          }
          dim {
            size: 1
          }
        }
      }
    }
  }
  attr {
    key: "validate_indices"
    value {
      b: true
    }
  }
}
node {
  name: "dnn/input_from_feature_columns/input_layer/make_budget_lp_indicator/one_hot/Const"
  op: "Const"
  attr {
    key: "_output_shapes"
    value {
      list {
        shape {
        }
      }
    }
  }
  attr {
    key: "dtype"
    value {
      type: DT_FLOAT
    }
  }
  attr {
    key: "value"
    value {
      tensor {
        dtype: DT_FLOAT
        tensor_shape {
        }
        float_val: 1.0
      }
    }
  }
}
node {
  name: "dnn/input_from_feature_columns/input_layer/make_budget_lp_indicator/one_hot/Const_1"
  op: "Const"
  attr {
    key: "_output_shapes"
    value {
      list {
        shape {
        }
      }
    }
  }
  attr {
    key: "dtype"
    value {
      type: DT_FLOAT
    }
  }
  attr {
    key: "value"
    value {
      tensor {
        dtype: DT_FLOAT
        tensor_shape {
        }
        float_val: 0.0
      }
    }
  }
}
node {
  name: "dnn/input_from_feature_columns/input_layer/make_budget_lp_indicator/one_hot/depth"
  op: "Const"
  attr {
    key: "_output_shapes"
    value {
      list {
        shape {
        }
      }
    }
  }
  attr {
    key: "dtype"
    value {
      type: DT_INT32
    }
  }
  attr {
    key: "value"
    value {
      tensor {
        dtype: DT_INT32
        tensor_shape {
        }
        int_val: 2
      }
    }
  }
}
node {
  name: "dnn/input_from_feature_columns/input_layer/make_budget_lp_indicator/one_hot/on_value"
  op: "Const"
  attr {
    key: "_output_shapes"
    value {
      list {
        shape {
        }
      }
    }
  }
  attr {
    key: "dtype"
    value {
      type: DT_FLOAT
    }
  }
  attr {
    key: "value"
    value {
      tensor {
        dtype: DT_FLOAT
        tensor_shape {
        }
        float_val: 1.0
      }
    }
  }
}
node {
  name: "dnn/input_from_feature_columns/input_layer/make_budget_lp_indicator/one_hot/off_value"
  op: "Const"
  attr {
    key: "_output_shapes"
    value {
      list {
        shape {
        }
      }
    }
  }
  attr {
    key: "dtype"
    value {
      type: DT_FLOAT
    }
  }
  attr {
    key: "value"
    value {
      tensor {
        dtype: DT_FLOAT
        tensor_shape {
        }
        float_val: 0.0
      }
    }
  }
}
node {
  name: "dnn/input_from_feature_columns/input_layer/make_budget_lp_indicator/one_hot"
  op: "OneHot"
  input: "dnn/input_from_feature_columns/input_layer/make_budget_lp_indicator/SparseToDense"
  input: "dnn/input_from_feature_columns/input_layer/make_budget_lp_indicator/one_hot/depth"
  input: "dnn/input_from_feature_columns/input_layer/make_budget_lp_indicator/one_hot/on_value"
  input: "dnn/input_from_feature_columns/input_layer/make_budget_lp_indicator/one_hot/off_value"
  attr {
    key: "T"
    value {
      type: DT_FLOAT
    }
  }
  attr {
    key: "TI"
    value {
      type: DT_INT64
    }
  }
  attr {
    key: "_output_shapes"
    value {
      list {
        shape {
          dim {
            size: -1
          }
          dim {
            size: 1
          }
          dim {
            size: 2
          }
        }
      }
    }
  }
  attr {
    key: "axis"
    value {
      i: -1
    }
  }
}
node {
  name: "dnn/input_from_feature_columns/input_layer/make_budget_lp_indicator/Sum/reduction_indices"
  op: "Const"
  attr {
    key: "_output_shapes"
    value {
      list {
        shape {
          dim {
            size: 1
          }
        }
      }
    }
  }
  attr {
    key: "dtype"
    value {
      type: DT_INT32
    }
  }
  attr {
    key: "value"
    value {
      tensor {
        dtype: DT_INT32
        tensor_shape {
          dim {
            size: 1
          }
        }
        int_val: -2
      }
    }
  }
}
node {
  name: "dnn/input_from_feature_columns/input_layer/make_budget_lp_indicator/Sum"
  op: "Sum"
  input: "dnn/input_from_feature_columns/input_layer/make_budget_lp_indicator/one_hot"
  input: "dnn/input_from_feature_columns/input_layer/make_budget_lp_indicator/Sum/reduction_indices"
  attr {
    key: "T"
    value {
      type: DT_FLOAT
    }
  }
  attr {
    key: "Tidx"
    value {
      type: DT_INT32
    }
  }
  attr {
    key: "_output_shapes"
    value {
      list {
        shape {
          dim {
            size: -1
          }
          dim {
            size: 2
          }
        }
      }
    }
  }
  attr {
    key: "keep_dims"
    value {
      b: false
    }
  }
}
node {
  name: "dnn/input_from_feature_columns/input_layer/make_budget_lp_indicator/Shape"
  op: "Shape"
  input: "dnn/input_from_feature_columns/input_layer/make_budget_lp_indicator/Sum"
  attr {
    key: "T"
    value {
      type: DT_FLOAT
    }
  }
  attr {
    key: "_output_shapes"
    value {
      list {
        shape {
          dim {
            size: 2
          }
        }
      }
    }
  }
  attr {
    key: "out_type"
    value {
      type: DT_INT32
    }
  }
}
node {
  name: "dnn/input_from_feature_columns/input_layer/make_budget_lp_indicator/strided_slice/stack"
  op: "Const"
  attr {
    key: "_output_shapes"
    value {
      list {
        shape {
          dim {
            size: 1
          }
        }
      }
    }
  }
  attr {
    key: "dtype"
    value {
      type: DT_INT32
    }
  }
  attr {
    key: "value"
    value {
      tensor {
        dtype: DT_INT32
        tensor_shape {
          dim {
            size: 1
          }
        }
        int_val: 0
      }
    }
  }
}
node {
  name: "dnn/input_from_feature_columns/input_layer/make_budget_lp_indicator/strided_slice/stack_1"
  op: "Const"
  attr {
    key: "_output_shapes"
    value {
      list {
        shape {
          dim {
            size: 1
          }
        }
      }
    }
  }
  attr {
    key: "dtype"
    value {
      type: DT_INT32
    }
  }
  attr {
    key: "value"
    value {
      tensor {
        dtype: DT_INT32
        tensor_shape {
          dim {
            size: 1
          }
        }
        int_val: 1
      }
    }
  }
}
node {
  name: "dnn/input_from_feature_columns/input_layer/make_budget_lp_indicator/strided_slice/stack_2"
  op: "Const"
  attr {
    key: "_output_shapes"
    value {
      list {
        shape {
          dim {
            size: 1
          }
        }
      }
    }
  }
  attr {
    key: "dtype"
    value {
      type: DT_INT32
    }
  }
  attr {
    key: "value"
    value {
      tensor {
        dtype: DT_INT32
        tensor_shape {
          dim {
            size: 1
          }
        }
        int_val: 1
      }
    }
  }
}
node {
  name: "dnn/input_from_feature_columns/input_layer/make_budget_lp_indicator/strided_slice"
  op: "StridedSlice"
  input: "dnn/input_from_feature_columns/input_layer/make_budget_lp_indicator/Shape"
  input: "dnn/input_from_feature_columns/input_layer/make_budget_lp_indicator/strided_slice/stack"
  input: "dnn/input_from_feature_columns/input_layer/make_budget_lp_indicator/strided_slice/stack_1"
  input: "dnn/input_from_feature_columns/input_layer/make_budget_lp_indicator/strided_slice/stack_2"
  attr {
    key: "Index"
    value {
      type: DT_INT32
    }
  }
  attr {
    key: "T"
    value {
      type: DT_INT32
    }
  }
  attr {
    key: "_output_shapes"
    value {
      list {
        shape {
        }
      }
    }
  }
  attr {
    key: "begin_mask"
    value {
      i: 0
    }
  }
  attr {
    key: "ellipsis_mask"
    value {
      i: 0
    }
  }
  attr {
    key: "end_mask"
    value {
      i: 0
    }
  }
  attr {
    key: "new_axis_mask"
    value {
      i: 0
    }
  }
  attr {
    key: "shrink_axis_mask"
    value {
      i: 1
    }
  }
}
node {
  name: "dnn/input_from_feature_columns/input_layer/make_budget_lp_indicator/Reshape/shape/1"
  op: "Const"
  attr {
    key: "_output_shapes"
    value {
      list {
        shape {
        }
      }
    }
  }
  attr {
    key: "dtype"
…
    value {
      list {
        shape {
          dim {
            size: 1
          }
        }
      }
    }
  }
  attr {
    key: "dtype"
    value {
      type: DT_STRING
    }
  }
  attr {
    key: "value"
    value {
      tensor {
        dtype: DT_STRING
        tensor_shape {
          dim {
            size: 1
          }
        }
        string_val: "2 1 0,2:0,1"
      }
    }
  }
}
node {
  name: "save/RestoreV2_50"
  op: "RestoreV2"
  input: "save/Const"
  input: "save/RestoreV2_50/tensor_names"
  input: "save/RestoreV2_50/shape_and_slices"
  attr {
    key: "_output_shapes"
    value {
      list {
        shape {
          dim {
            size: 2
          }
          dim {
            size: 1
          }
        }
      }
    }
  }
  attr {
    key: "dtypes"
    value {
      list {
        type: DT_FLOAT
      }
    }
  }
}
node {
  name: "save/Assign_50"
  op: "Assign"
  input: "linear/linear_model/market/weights/part_0/Ftrl_1"
  input: "save/RestoreV2_50"
  attr {
    key: "T"
    value {
      type: DT_FLOAT
    }
  }
  attr {
    key: "_class"
    value {
      list {
        s: "loc:@linear/linear_model/market/weights/part_0"
      }
    }
  }
  attr {
    key: "_output_shapes"
    value {
      list {
        shape {
          dim {
            size: 2
          }
          dim {
            size: 1
          }
        }
      }
    }
  }
  attr {
    key: "use_locking"
    value {
      b: true
    }
  }
  attr {
    key: "validate_shape"
    value {
      b: true
    }
  }
}
node {
  name: "save/RestoreV2_51/tensor_names"
  op: "Const"
  attr {
    key: "_output_shapes"
    value {
      list {
        shape {
          dim {
            size: 1
          }
        }
      }
    }
  }
  attr {
    key: "dtype"
    value {
      type: DT_STRING
    }
  }
  attr {
    key: "value"
    value {
      tensor {
        dtype: DT_STRING
        tensor_shape {
          dim {
            size: 1
          }
        }
        string_val: "linear/linear_model/size/weights"
      }
    }
  }
}
node {
  name: "save/RestoreV2_51/shape_and_slices"
  op: "Const"
  attr {
    key: "_output_shapes"
    value {
      list {
        shape {
          dim {
            size: 1
          }
        }
      }
    }
  }
  attr {
    key: "dtype"
    value {
      type: DT_STRING
    }
  }
  attr {
    key: "value"
    value {
      tensor {
        dtype: DT_STRING
        tensor_shape {
          dim {
            size: 1
          }
        }
        string_val: "5 1 0,5:0,1"
      }
    }
  }
}
node {
  name: "save/RestoreV2_51"
  op: "RestoreV2"
  input: "save/Const"
  input: "save/RestoreV2_51/tensor_names"
  input: "save/RestoreV2_51/shape_and_slices"
  attr {
    key: "_output_shapes"
    value {
      list {
        shape {
          dim {
            size: 5
          }
          dim {
            size: 1
          }
        }
      }
    }
  }
  attr {
    key: "dtypes"
    value {
      list {
        type: DT_FLOAT
      }
    }
  }
}
node {
  name: "save/Assign_51"
  op: "Assign"
  input: "linear/linear_model/size/weights/part_0"
  input: "save/RestoreV2_51"
  attr {
    key: "T"
    value {
      type: DT_FLOAT
    }
  }
  attr {
    key: "_class"
    value {
      list {
        s: "loc:@linear/linear_model/size/weights/part_0"
      }
    }
  }
  attr {
    key: "_output_shapes"
    value {
      list {
        shape {
          dim {
            size: 5
          }
          dim {
            size: 1
          }
        }
      }
    }
  }
  attr {
    key: "use_locking"
    value {
      b: true
    }
  }
  attr {
    key: "validate_shape"
    value {
      b: true
    }
  }
}
node {
  name: "save/RestoreV2_52/tensor_names"
  op: "Const"
  attr {
    key: "_output_shapes"
    value {
      list {
        shape {
          dim {
            size: 1
          }
        }
      }
    }
  }
  attr {
    key: "dtype"
    value {
      type: DT_STRING
    }
  }
  attr {
    key: "value"
    value {
      tensor {
        dtype: DT_STRING
        tensor_shape {
          dim {
            size: 1
          }
        }
        string_val: "linear/linear_model/size/weights/Ftrl"
      }
    }
  }
}
node {
  name: "save/RestoreV2_52/shape_and_slices"
  op: "Const"
  attr {
    key: "_output_shapes"
    value {
      list {
        shape {
          dim {
            size: 1
          }
        }
      }
    }
  }
  attr {
    key: "dtype"
    value {
      type: DT_STRING
    }
  }
  attr {
    key: "value"
    value {
      tensor {
        dtype: DT_STRING
        tensor_shape {
          dim {
            size: 1
          }
        }
        string_val: "5 1 0,5:0,1"
      }
    }
  }
}
node {
  name: "save/RestoreV2_52"
  op: "RestoreV2"
  input: "save/Const"
  input: "save/RestoreV2_52/tensor_names"
  input: "save/RestoreV2_52/shape_and_slices"
  attr {
    key: "_output_shapes"
    value {
      list {
        shape {
          dim {
            size: 5
          }
          dim {
            size: 1
          }
        }
      }
    }
  }
  attr {
    key: "dtypes"
    value {
      list {
        type: DT_FLOAT
      }
    }
  }
}
node {
  name: "save/Assign_52"
  op: "Assign"
  input: "linear/linear_model/size/weights/part_0/Ftrl"
  input: "save/RestoreV2_52"
  attr {
    key: "T"
    value {
      type: DT_FLOAT
    }
  }
  attr {
    key: "_class"
    value {
      list {
        s: "loc:@linear/linear_model/size/weights/part_0"
      }
    }
  }
  attr {
    key: "_output_shapes"
    value {
      list {
        shape {
          dim {
            size: 5
          }
          dim {
            size: 1
          }
        }
      }
    }
  }
  attr {
    key: "use_locking"
    value {
      b: true
    }
  }
  attr {
    key: "validate_shape"
    value {
      b: true
    }
  }
}
node {
  name: "save/RestoreV2_53/tensor_names"
  op: "Const"
  attr {
    key: "_output_shapes"
    value {
      list {
        shape {
          dim {
            size: 1
          }
        }
      }
    }
  }
  attr {
    key: "dtype"
    value {
      type: DT_STRING
    }
  }
  attr {
    key: "value"
    value {
      tensor {
        dtype: DT_STRING
        tensor_shape {
          dim {
            size: 1
          }
        }
        string_val: "linear/linear_model/size/weights/Ftrl_1"
      }
    }
  }
}
node {
  name: "save/RestoreV2_53/shape_and_slices"
  op: "Const"
  attr {
    key: "_output_shapes"
    value {
      list {
        shape {
          dim {
            size: 1
          }
        }
      }
    }
  }
  attr {
    key: "dtype"
    value {
      type: DT_STRING
    }
  }
  attr {
    key: "value"
    value {
      tensor {
        dtype: DT_STRING
        tensor_shape {
          dim {
            size: 1
          }
        }
        string_val: "5 1 0,5:0,1"
      }
    }
  }
}
node {
  name: "save/RestoreV2_53"
  op: "RestoreV2"
  input: "save/Const"
  input: "save/RestoreV2_53/tensor_names"
  input: "save/RestoreV2_53/shape_and_slices"
  attr {
    key: "_output_shapes"
    value {
      list {
        shape {
          dim {
            size: 5
          }
          dim {
            size: 1
          }
        }
      }
    }
  }
  attr {
    key: "dtypes"
    value {
      list {
        type: DT_FLOAT
      }
    }
  }
}
node {
  name: "save/Assign_53"
  op: "Assign"
  input: "linear/linear_model/size/weights/part_0/Ftrl_1"
  input: "save/RestoreV2_53"
  attr {
    key: "T"
    value {
      type: DT_FLOAT
    }
  }
  attr {
    key: "_class"
    value {
      list {
        s: "loc:@linear/linear_model/size/weights/part_0"
      }
    }
  }
  attr {
    key: "_output_shapes"
    value {
      list {
        shape {
          dim {
            size: 5
          }
          dim {
            size: 1
          }
        }
      }
    }
  }
  attr {
    key: "use_locking"
    value {
      b: true
    }
  }
  attr {
    key: "validate_shape"
    value {
      b: true
    }
  }
}
node {
  name: "save/RestoreV2_54/tensor_names"
  op: "Const"
  attr {
    key: "_output_shapes"
    value {
      list {
        shape {
          dim {
            size: 1
          }
        }
      }
    }
  }
  attr {
    key: "dtype"
    value {
      type: DT_STRING
    }
  }
  attr {
    key: "value"
    value {
      tensor {
        dtype: DT_STRING
        tensor_shape {
          dim {
            size: 1
          }
        }
        string_val: "linear/linear_model/size_X_weather_fc/weights"
      }
    }
  }
}
node {
  name: "save/RestoreV2_54/shape_and_slices"
  op: "Const"
  attr {
    key: "_output_shapes"
    value {
      list {
        shape {
          dim {
            size: 1
          }
        }
      }
    }
  }
  attr {
    key: "dtype"
    value {
      type: DT_STRING
    }
  }
  attr {
    key: "value"
    value {
      tensor {
        dtype: DT_STRING
        tensor_shape {
          dim {
            size: 1
          }
        }
        string_val: "1000 1 0,1000:0,1"
      }
    }
  }
}
node {
  name: "save/RestoreV2_54"
  op: "RestoreV2"
  input: "save/Const"
  input: "save/RestoreV2_54/tensor_names"
  input: "save/RestoreV2_54/shape_and_slices"
  attr {
    key: "_output_shapes"
    value {
      list {
        shape {
          dim {
            size: 1000
          }
          dim {
            size: 1
          }
        }
      }
    }
  }
  attr {
    key: "dtypes"
    value {
      list {
        type: DT_FLOAT
      }
    }
  }
}
node {
  name: "save/Assign_54"
  op: "Assign"
  input: "linear/linear_model/size_X_weather_fc/weights/part_0"
  input: "save/RestoreV2_54"
  attr {
    key: "T"
    value {
      type: DT_FLOAT
    }
  }
  attr {
    key: "_class"
    value {
      list {
        s: "loc:@linear/linear_model/size_X_weather_fc/weights/part_0"
      }
    }
  }
  attr {
    key: "_output_shapes"
    value {
      list {
        shape {
          dim {
            size: 1000
          }
          dim {
            size: 1
          }
        }
      }
    }
  }
  attr {
    key: "use_locking"
    value {
      b: true
    }
  }
  attr {
    key: "validate_shape"
    value {
      b: true
    }
  }
}
node {
  name: "save/RestoreV2_55/tensor_names"
  op: "Const"
  attr {
    key: "_output_shapes"
    value {
      list {
        shape {
          dim {
            size: 1
          }
        }
      }
    }
  }
  attr {
    key: "dtype"
    value {
      type: DT_STRING
    }
  }
  attr {
    key: "value"
    value {
      tensor {
        dtype: DT_STRING
        tensor_shape {
          dim {
            size: 1
          }
        }
        string_val: "linear/linear_model/size_X_weather_fc/weights/Ftrl"
      }
    }
  }
}
node {
  name: "save/RestoreV2_55/shape_and_slices"
  op: "Const"
  attr {
    key: "_output_shapes"
    value {
      list {
        shape {
          dim {
            size: 1
          }
        }
      }
    }
  }
  attr {
    key: "dtype"
    value {
      type: DT_STRING
    }
  }
  attr {
    key: "value"
    value {
      tensor {
        dtype: DT_STRING
        tensor_shape {
          dim {
            size: 1
          }
        }
        string_val: "1000 1 0,1000:0,1"
      }
    }
  }
}
node {
  name: "save/RestoreV2_55"
  op: "RestoreV2"
  input: "save/Const"
  input: "save/RestoreV2_55/tensor_names"
  input: "save/RestoreV2_55/shape_and_slices"
  attr {
    key: "_output_shapes"
    value {
      list {
        shape {
          dim {
            size: 1000
          }
          dim {
            size: 1
          }
        }
      }
    }
  }
  attr {
    key: "dtypes"
    value {
      list {
        type: DT_FLOAT
      }
    }
  }
}
node {
  name: "save/Assign_55"
  op: "Assign"
  input: "linear/linear_model/size_X_weather_fc/weights/part_0/Ftrl"
  input: "save/RestoreV2_55"
  attr {
    key: "T"
    value {
      type: DT_FLOAT
    }
  }
  attr {
    key: "_class"
    value {
      list {
        s: "loc:@linear/linear_model/size_X_weather_fc/weights/part_0"
      }
    }
  }
  attr {
    key: "_output_shapes"
    value {
      list {
        shape {
          dim {
            size: 1000
          }
          dim {
            size: 1
          }
        }
      }
    }
  }
  attr {
    key: "use_locking"
    value {
      b: true
    }
  }
  attr {
    key: "validate_shape"
    value {
      b: true
    }
  }
}
node {
  name: "save/RestoreV2_56/tensor_names"
  op: "Const"
  attr {
    key: "_output_shapes"
    value {
      list {
        shape {
          dim {
            size: 1
          }
        }
      }
    }
  }
  attr {
    key: "dtype"
    value {
      type: DT_STRING
    }
  }
  attr {
    key: "value"
    value {
      tensor {
        dtype: DT_STRING
        tensor_shape {
          dim {
            size: 1
          }
        }
        string_val: "linear/linear_model/size_X_weather_fc/weights/Ftrl_1"
      }
    }
  }
}
node {
  name: "save/RestoreV2_56/shape_and_slices"
  op: "Const"
  attr {
    key: "_output_shapes"
    value {
      list {
        shape {
          dim {
            size: 1
          }
        }
      }
    }
  }
  attr {
    key: "dtype"
    value {
      type: DT_STRING
    }
  }
  attr {
    key: "value"
    value {
      tensor {
        dtype: DT_STRING
        tensor_shape {
          dim {
            size: 1
          }
        }
        string_val: "1000 1 0,1000:0,1"
      }
    }
  }
}
node {
  name: "save/RestoreV2_56"
  op: "RestoreV2"
  input: "save/Const"
  input: "save/RestoreV2_56/tensor_names"
  input: "save/RestoreV2_56/shape_and_slices"
  attr {
    key: "_output_shapes"
    value {
      list {
        shape {
          dim {
            size: 1000
          }
          dim {
            size: 1
          }
        }
      }
    }
  }
  attr {
    key: "dtypes"
    value {
      list {
        type: DT_FLOAT
      }
    }
  }
}
node {
  name: "save/Assign_56"
  op: "Assign"
  input: "linear/linear_model/size_X_weather_fc/weights/part_0/Ftrl_1"
  input: "save/RestoreV2_56"
  attr {
    key: "T"
    value {
      type: DT_FLOAT
    }
  }
  attr {
    key: "_class"
    value {
      list {
        s: "loc:@linear/linear_model/size_X_weather_fc/weights/part_0"
      }
    }
  }
  attr {
    key: "_output_shapes"
    value {
      list {
        shape {
          dim {
            size: 1000
          }
          dim {
            size: 1
          }
        }
      }
    }
  }
  attr {
    key: "use_locking"
    value {
      b: true
    }
  }
  attr {
    key: "validate_shape"
    value {
      b: true
    }
  }
}
node {
  name: "save/RestoreV2_57/tensor_names"
  op: "Const"
  attr {
    key: "_output_shapes"
    value {
      list {
        shape {
          dim {
            size: 1
          }
        }
      }
    }
  }
  attr {
    key: "dtype"
    value {
      type: DT_STRING
    }
  }
  attr {
    key: "value"
    value {
      tensor {
        dtype: DT_STRING
        tensor_shape {
          dim {
            size: 1
          }
        }
        string_val: "linear/linear_model/weather_fc/weights"
      }
    }
  }
}
node {
  name: "save/RestoreV2_57/shape_and_slices"
  op: "Const"
  attr {
    key: "_output_shapes"
    value {
      list {
        shape {
          dim {
            size: 1
          }
        }
      }
    }
  }
  attr {
    key: "dtype"
    value {
      type: DT_STRING
    }
  }
  attr {
    key: "value"
    value {
      tensor {
        dtype: DT_STRING
        tensor_shape {
          dim {
            size: 1
          }
        }
        string_val: "11 1 0,11:0,1"
      }
    }
  }
}
node {
  name: "save/RestoreV2_57"
  op: "RestoreV2"
  input: "save/Const"
  input: "save/RestoreV2_57/tensor_names"
  input: "save/RestoreV2_57/shape_and_slices"
  attr {
    key: "_output_shapes"
    value {
      list {
        shape {
          dim {
            size: 11
          }
          dim {
            size: 1
          }
        }
      }
    }
  }
  attr {
    key: "dtypes"
    value {
      list {
        type: DT_FLOAT
      }
    }
  }
}
node {
  name: "save/Assign_57"
  op: "Assign"
  input: "linear/linear_model/weather_fc/weights/part_0"
  input: "save/RestoreV2_57"
  attr {
    key: "T"
    value {
      type: DT_FLOAT
    }
  }
  attr {
    key: "_class"
    value {
      list {
        s: "loc:@linear/linear_model/weather_fc/weights/part_0"
      }
    }
  }
  attr {
    key: "_output_shapes"
    value {
      list {
        shape {
          dim {
            size: 11
          }
          dim {
            size: 1
          }
        }
      }
    }
  }
  attr {
    key: "use_locking"
    value {
      b: true
    }
  }
  attr {
    key: "validate_shape"
    value {
      b: true
    }
  }
}
node {
  name: "save/RestoreV2_58/tensor_names"
  op: "Const"
  attr {
    key: "_output_shapes"
    value {
      list {
        shape {
          dim {
            size: 1
          }
        }
      }
    }
  }
  attr {
    key: "dtype"
    value {
      type: DT_STRING
    }
  }
  attr {
    key: "value"
    value {
      tensor {
        dtype: DT_STRING
        tensor_shape {
          dim {
            size: 1
          }
        }
        string_val: "linear/linear_model/weather_fc/weights/Ftrl"
      }
    }
  }
}
node {
  name: "save/RestoreV2_58/shape_and_slices"
  op: "Const"
  attr {
    key: "_output_shapes"
    value {
      list {
        shape {
          dim {
            size: 1
          }
        }
      }
    }
  }
  attr {
    key: "dtype"
    value {
      type: DT_STRING
    }
  }
  attr {
    key: "value"
    value {
      tensor {
        dtype: DT_STRING
        tensor_shape {
          dim {
            size: 1
          }
        }
        string_val: "11 1 0,11:0,1"
      }
    }
  }
}
node {
  name: "save/RestoreV2_58"
  op: "RestoreV2"
  input: "save/Const"
  input: "save/RestoreV2_58/tensor_names"
  input: "save/RestoreV2_58/shape_and_slices"
  attr {
    key: "_output_shapes"
    value {
      list {
        shape {
          dim {
            size: 11
          }
          dim {
            size: 1
          }
        }
      }
    }
  }
  attr {
    key: "dtypes"
    value {
      list {
        type: DT_FLOAT
      }
    }
  }
}
node {
  name: "save/Assign_58"
  op: "Assign"
  input: "linear/linear_model/weather_fc/weights/part_0/Ftrl"
  input: "save/RestoreV2_58"
  attr {
    key: "T"
    value {
      type: DT_FLOAT
    }
  }
  attr {
    key: "_class"
    value {
      list {
        s: "loc:@linear/linear_model/weather_fc/weights/part_0"
      }
    }
  }
  attr {
    key: "_output_shapes"
    value {
      list {
        shape {
          dim {
            size: 11
          }
          dim {
            size: 1
          }
        }
      }
    }
  }
  attr {
    key: "use_locking"
    value {
      b: true
    }
  }
  attr {
    key: "validate_shape"
    value {
      b: true
    }
  }
}
node {
  name: "save/RestoreV2_59/tensor_names"
  op: "Const"
  attr {
    key: "_output_shapes"
    value {
      list {
        shape {
          dim {
            size: 1
          }
        }
      }
    }
  }
  attr {
    key: "dtype"
    value {
      type: DT_STRING
    }
  }
  attr {
    key: "value"
    value {
      tensor {
        dtype: DT_STRING
        tensor_shape {
          dim {
            size: 1
          }
        }
        string_val: "linear/linear_model/weather_fc/weights/Ftrl_1"
      }
    }
  }
}
node {
  name: "save/RestoreV2_59/shape_and_slices"
  op: "Const"
  attr {
    key: "_output_shapes"
    value {
      list {
        shape {
          dim {
            size: 1
          }
        }
      }
    }
  }
  attr {
    key: "dtype"
    value {
      type: DT_STRING
    }
  }
  attr {
    key: "value"
    value {
      tensor {
        dtype: DT_STRING
        tensor_shape {
          dim {
            size: 1
          }
        }
        string_val: "11 1 0,11:0,1"
      }
    }
  }
}
node {
  name: "save/RestoreV2_59"
  op: "RestoreV2"
  input: "save/Const"
  input: "save/RestoreV2_59/tensor_names"
  input: "save/RestoreV2_59/shape_and_slices"
  attr {
    key: "_output_shapes"
    value {
      list {
        shape {
          dim {
            size: 11
          }
          dim {
            size: 1
          }
        }
      }
    }
  }
  attr {
    key: "dtypes"
    value {
      list {
        type: DT_FLOAT
      }
    }
  }
}
node {
  name: "save/Assign_59"
  op: "Assign"
  input: "linear/linear_model/weather_fc/weights/part_0/Ftrl_1"
  input: "save/RestoreV2_59"
  attr {
    key: "T"
    value {
      type: DT_FLOAT
    }
  }
  attr {
    key: "_class"
    value {
      list {
        s: "loc:@linear/linear_model/weather_fc/weights/part_0"
      }
    }
  }
  attr {
    key: "_output_shapes"
    value {
      list {
        shape {
          dim {
            size: 11
          }
          dim {
            size: 1
          }
        }
      }
    }
  }
  attr {
    key: "use_locking"
    value {
      b: true
    }
  }
  attr {
    key: "validate_shape"
    value {
      b: true
    }
  }
}
node {
  name: "save/restore_shard"
  op: "NoOp"
  input: "^save/Assign"
  input: "^save/Assign_1"
  input: "^save/Assign_2"
  input: "^save/Assign_3"
  input: "^save/Assign_4"
  input: "^save/Assign_5"
  input: "^save/Assign_6"
  input: "^save/Assign_7"
  input: "^save/Assign_8"
  input: "^save/Assign_9"
  input: "^save/Assign_10"
  input: "^save/Assign_11"
  input: "^save/Assign_12"
  input: "^save/Assign_13"
  input: "^save/Assign_14"
  input: "^save/Assign_15"
  input: "^save/Assign_16"
  input: "^save/Assign_17"
  input: "^save/Assign_18"
  input: "^save/Assign_19"
  input: "^save/Assign_20"
  input: "^save/Assign_21"
  input: "^save/Assign_22"
  input: "^save/Assign_23"
  input: "^save/Assign_24"
  input: "^save/Assign_25"
  input: "^save/Assign_26"
  input: "^save/Assign_27"
  input: "^save/Assign_28"
  input: "^save/Assign_29"
  input: "^save/Assign_30"
  input: "^save/Assign_31"
  input: "^save/Assign_32"
  input: "^save/Assign_33"
  input: "^save/Assign_34"
  input: "^save/Assign_35"
  input: "^save/Assign_36"
  input: "^save/Assign_37"
  input: "^save/Assign_38"
  input: "^save/Assign_39"
  input: "^save/Assign_40"
  input: "^save/Assign_41"
  input: "^save/Assign_42"
  input: "^save/Assign_43"
  input: "^save/Assign_44"
  input: "^save/Assign_45"
  input: "^save/Assign_46"
  input: "^save/Assign_47"
  input: "^save/Assign_48"
  input: "^save/Assign_49"
  input: "^save/Assign_50"
  input: "^save/Assign_51"
  input: "^save/Assign_52"
  input: "^save/Assign_53"
  input: "^save/Assign_54"
  input: "^save/Assign_55"
  input: "^save/Assign_56"
  input: "^save/Assign_57"
  input: "^save/Assign_58"
  input: "^save/Assign_59"
}
node {
  name: "save/restore_all"
  op: "NoOp"
  input: "^save/restore_shard"
}
library {
  function {
    signature {
      name: "tf_map_func_ac42d421"
      input_arg {
        name: "arg0"
        type: DT_STRING
      }
      output_arg {
        name: "DecodeCSV_o12"
        type: DT_STRING
      }
      output_arg {
        name: "DecodeCSV_o5"
        type: DT_INT32
      }
      output_arg {
        name: "DecodeCSV_o14"
        type: DT_INT32
      }
      output_arg {
        name: "DecodeCSV_o8"
        type: DT_STRING
      }
      output_arg {
        name: "DecodeCSV_o9"
        type: DT_STRING
      }
      output_arg {
        name: "DecodeCSV_o6"
        type: DT_STRING
      }
      output_arg {
        name: "DecodeCSV_o15"
        type: DT_INT32
      }
      output_arg {
        name: "DecodeCSV_o17"
        type: DT_INT32
      }
      output_arg {
        name: "DecodeCSV_o1"
        type: DT_STRING
      }
      output_arg {
        name: "DecodeCSV_o7"
        type: DT_INT32
      }
      output_arg {
        name: "DecodeCSV_o16"
        type: DT_INT32
      }
      output_arg {
        name: "DecodeCSV_o13"
        type: DT_INT32
      }
      output_arg {
        name: "DecodeCSV_o19"
        type: DT_STRING
      }
      output_arg {
        name: "DecodeCSV_o20"
        type: DT_STRING
      }
      output_arg {
        name: "DecodeCSV_o10"
        type: DT_STRING
      }
      output_arg {
        name: "DecodeCSV_o11"
        type: DT_INT32
      }
      output_arg {
        name: "DecodeCSV"
        type: DT_STRING
      }
      output_arg {
        name: "DecodeCSV_o4"
        type: DT_INT32
      }
      output_arg {
        name: "DecodeCSV_o18"
        type: DT_STRING
      }
      output_arg {
        name: "DecodeCSV_o3"
        type: DT_INT32
      }
      output_arg {
        name: "DecodeCSV_o2"
        type: DT_INT32
      }
      output_arg {
        name: "Equal"
        type: DT_BOOL
      }
      description: "A wrapper for Defun that facilitates shape inference."
    }
    node_def {
      name: "DecodeCSV/record_defaults_0"
      op: "Const"
      attr {
        key: "dtype"
        value {
          type: DT_STRING
        }
      }
      attr {
        key: "value"
        value {
          tensor {
            dtype: DT_STRING
            tensor_shape {
              dim {
                size: 1
              }
            }
            string_val: ""
          }
        }
      }
    }
    node_def {
      name: "DecodeCSV/record_defaults_1"
      op: "Const"
      attr {
        key: "dtype"
        value {
          type: DT_STRING
        }
      }
      attr {
        key: "value"
        value {
          tensor {
            dtype: DT_STRING
            tensor_shape {
              dim {
                size: 1
              }
            }
            string_val: ""
          }
        }
      }
    }
    node_def {
      name: "DecodeCSV/record_defaults_2"
      op: "Const"
      attr {
        key: "dtype"
        value {
          type: DT_INT32
        }
      }
      attr {
        key: "value"
        value {
          tensor {
            dtype: DT_INT32
            tensor_shape {
              dim {
                size: 1
              }
            }
            int_val: 0
          }
        }
      }
    }
    node_def {
      name: "DecodeCSV/record_defaults_3"
      op: "Const"
      attr {
        key: "dtype"
        value {
          type: DT_INT32
        }
      }
      attr {
        key: "value"
        value {
          tensor {
            dtype: DT_INT32
            tensor_shape {
              dim {
                size: 1
              }
            }
            int_val: 0
          }
        }
      }
    }
    node_def {
      name: "DecodeCSV/record_defaults_4"
      op: "Const"
      attr {
        key: "dtype"
        value {
          type: DT_INT32
        }
      }
      attr {
        key: "value"
        value {
          tensor {
            dtype: DT_INT32
            tensor_shape {
              dim {
                size: 1
              }
            }
            int_val: 0
          }
        }
      }
    }
    node_def {
      name: "DecodeCSV/record_defaults_5"
      op: "Const"
      attr {
        key: "dtype"
        value {
          type: DT_INT32
        }
      }
      attr {
        key: "value"
        value {
          tensor {
            dtype: DT_INT32
            tensor_shape {
              dim {
                size: 1
              }
            }
            int_val: 0
          }
        }
      }
    }
    node_def {
      name: "DecodeCSV/record_defaults_6"
      op: "Const"
      attr {
        key: "dtype"
        value {
          type: DT_STRING
        }
      }
      attr {
        key: "value"
        value {
          tensor {
            dtype: DT_STRING
            tensor_shape {
              dim {
                size: 1
              }
            }
            string_val: ""
          }
        }
      }
    }
    node_def {
      name: "DecodeCSV/record_defaults_7"
      op: "Const"
      attr {
        key: "dtype"
        value {
          type: DT_INT32
        }
      }
      attr {
        key: "value"
        value {
          tensor {
            dtype: DT_INT32
            tensor_shape {
              dim {
                size: 1
              }
            }
            int_val: 0
          }
        }
      }
    }
    node_def {
      name: "DecodeCSV/record_defaults_8"
      op: "Const"
      attr {
        key: "dtype"
        value {
          type: DT_STRING
        }
      }
      attr {
        key: "value"
        value {
          tensor {
            dtype: DT_STRING
            tensor_shape {
              dim {
                size: 1
              }
            }
            string_val: ""
          }
        }
      }
    }
    node_def {
      name: "DecodeCSV/record_defaults_9"
      op: "Const"
      attr {
        key: "dtype"
        value {
          type: DT_STRING
        }
      }
      attr {
        key: "value"
        value {
          tensor {
            dtype: DT_STRING
            tensor_shape {
              dim {
                size: 1
              }
            }
            string_val: ""
          }
        }
      }
    }
    node_def {
      name: "DecodeCSV/record_defaults_10"
      op: "Const"
      attr {
        key: "dtype"
        value {
          type: DT_STRING
        }
      }
      attr {
        key: "value"
        value {
          tensor {
            dtype: DT_STRING
            tensor_shape {
              dim {
                size: 1
              }
            }
            string_val: ""
          }
        }
      }
    }
    node_def {
      name: "DecodeCSV/record_defaults_11"
      op: "Const"
      attr {
        key: "dtype"
        value {
          type: DT_INT32
        }
      }
      attr {
        key: "value"
        value {
          tensor {
            dtype: DT_INT32
            tensor_shape {
              dim {
                size: 1
              }
            }
            int_val: 0
          }
        }
      }
    }
    node_def {
      name: "DecodeCSV/record_defaults_12"
      op: "Const"
      attr {
        key: "dtype"
        value {
          type: DT_STRING
        }
      }
      attr {
        key: "value"
        value {
          tensor {
            dtype: DT_STRING
            tensor_shape {
              dim {
                size: 1
              }
            }
            string_val: ""
          }
        }
      }
    }
    node_def {
      name: "DecodeCSV/record_defaults_13"
      op: "Const"
      attr {
        key: "dtype"
        value {
          type: DT_INT32
        }
      }
      attr {
        key: "value"
        value {
          tensor {
            dtype: DT_INT32
            tensor_shape {
              dim {
                size: 1
              }
            }
            int_val: 0
          }
        }
      }
    }
    node_def {
      name: "DecodeCSV/record_defaults_14"
      op: "Const"
      attr {
        key: "dtype"
        value {
          type: DT_INT32
        }
      }
      attr {
        key: "value"
        value {
          tensor {
            dtype: DT_INT32
            tensor_shape {
              dim {
                size: 1
              }
            }
            int_val: 0
          }
        }
      }
    }
    node_def {
      name: "DecodeCSV/record_defaults_15"
      op: "Const"
      attr {
        key: "dtype"
        value {
          type: DT_INT32
        }
      }
      attr {
        key: "value"
        value {
          tensor {
            dtype: DT_INT32
            tensor_shape {
              dim {
                size: 1
              }
            }
            int_val: 0
          }
        }
      }
    }
    node_def {
      name: "DecodeCSV/record_defaults_16"
      op: "Const"
      attr {
        key: "dtype"
        value {
          type: DT_INT32
        }
      }
      attr {
        key: "value"
        value {
          tensor {
            dtype: DT_INT32
            tensor_shape {
              dim {
                size: 1
              }
            }
            int_val: 0
          }
        }
      }
    }
    node_def {
      name: "DecodeCSV/record_defaults_17"
      op: "Const"
      attr {
        key: "dtype"
        value {
          type: DT_INT32
        }
      }
      attr {
        key: "value"
        value {
          tensor {
            dtype: DT_INT32
            tensor_shape {
              dim {
                size: 1
              }
            }
            int_val: 0
          }
        }
      }
    }
    node_def {
      name: "DecodeCSV/record_defaults_18"
      op: "Const"
      attr {
        key: "dtype"
        value {
          type: DT_STRING
        }
      }
      attr {
        key: "value"
        value {
          tensor {
            dtype: DT_STRING
            tensor_shape {
              dim {
                size: 1
              }
            }
            string_val: ""
          }
        }
      }
    }
    node_def {
      name: "DecodeCSV/record_defaults_19"
      op: "Const"
      attr {
        key: "dtype"
        value {
          type: DT_STRING
        }
      }
      attr {
        key: "value"
        value {
          tensor {
            dtype: DT_STRING
            tensor_shape {
              dim {
                size: 1
              }
            }
            string_val: ""
          }
        }
      }
    }
    node_def {
      name: "DecodeCSV/record_defaults_20"
      op: "Const"
      attr {
        key: "dtype"
        value {
          type: DT_STRING
        }
      }
      attr {
        key: "value"
        value {
          tensor {
            dtype: DT_STRING
            tensor_shape {
              dim {
                size: 1
              }
            }
            string_val: ""
          }
        }
      }
    }
    node_def {
      name: "DecodeCSV/record_defaults_21"
      op: "Const"
      attr {
        key: "dtype"
        value {
          type: DT_STRING
        }
      }
      attr {
        key: "value"
        value {
          tensor {
            dtype: DT_STRING
            tensor_shape {
              dim {
                size: 1
              }
            }
            string_val: ""
          }
        }
      }
    }
    node_def {
      name: "DecodeCSV"
      op: "DecodeCSV"
      input: "arg0"
      input: "DecodeCSV/record_defaults_0:output:0"
      input: "DecodeCSV/record_defaults_1:output:0"
      input: "DecodeCSV/record_defaults_2:output:0"
      input: "DecodeCSV/record_defaults_3:output:0"
      input: "DecodeCSV/record_defaults_4:output:0"
      input: "DecodeCSV/record_defaults_5:output:0"
      input: "DecodeCSV/record_defaults_6:output:0"
      input: "DecodeCSV/record_defaults_7:output:0"
      input: "DecodeCSV/record_defaults_8:output:0"
      input: "DecodeCSV/record_defaults_9:output:0"
      input: "DecodeCSV/record_defaults_10:output:0"
      input: "DecodeCSV/record_defaults_11:output:0"
      input: "DecodeCSV/record_defaults_12:output:0"
      input: "DecodeCSV/record_defaults_13:output:0"
      input: "DecodeCSV/record_defaults_14:output:0"
      input: "DecodeCSV/record_defaults_15:output:0"
      input: "DecodeCSV/record_defaults_16:output:0"
      input: "DecodeCSV/record_defaults_17:output:0"
      input: "DecodeCSV/record_defaults_18:output:0"
      input: "DecodeCSV/record_defaults_19:output:0"
      input: "DecodeCSV/record_defaults_20:output:0"
      input: "DecodeCSV/record_defaults_21:output:0"
      attr {
        key: "OUT_TYPE"
        value {
          list {
            type: DT_STRING
            type: DT_STRING
            type: DT_INT32
            type: DT_INT32
            type: DT_INT32
            type: DT_INT32
            type: DT_STRING
            type: DT_INT32
            type: DT_STRING
            type: DT_STRING
            type: DT_STRING
            type: DT_INT32
            type: DT_STRING
            type: DT_INT32
            type: DT_INT32
            type: DT_INT32
            type: DT_INT32
            type: DT_INT32
            type: DT_STRING
            type: DT_STRING
            type: DT_STRING
            type: DT_STRING
          }
        }
      }
      attr {
        key: "field_delim"
        value {
          s: ","
        }
      }
      attr {
        key: "na_value"
        value {
          s: ""
        }
      }
      attr {
        key: "use_quote_delim"
        value {
          b: true
        }
      }
    }
    node_def {
      name: "Equal/y"
      op: "Const"
      attr {
        key: "dtype"
        value {
          type: DT_STRING
        }
      }
      attr {
        key: "value"
        value {
          tensor {
            dtype: DT_STRING
            tensor_shape {
            }
            string_val: "y"
          }
        }
      }
    }
    node_def {
      name: "Equal"
      op: "Equal"
      input: "DecodeCSV:output:21"
      input: "Equal/y:output:0"
      attr {
        key: "T"
        value {
          type: DT_STRING
        }
      }
    }
    ret {
      key: "DecodeCSV"
      value: "DecodeCSV:output:0"
    }
    ret {
      key: "DecodeCSV_o1"
      value: "DecodeCSV:output:1"
    }
    ret {
      key: "DecodeCSV_o10"
      value: "DecodeCSV:output:10"
    }
    ret {
      key: "DecodeCSV_o11"
      value: "DecodeCSV:output:11"
    }
    ret {
      key: "DecodeCSV_o12"
      value: "DecodeCSV:output:12"
    }
    ret {
      key: "DecodeCSV_o13"
      value: "DecodeCSV:output:13"
    }
    ret {
      key: "DecodeCSV_o14"
      value: "DecodeCSV:output:14"
    }
    ret {
      key: "DecodeCSV_o15"
      value: "DecodeCSV:output:15"
    }
    ret {
      key: "DecodeCSV_o16"
      value: "DecodeCSV:output:16"
    }
    ret {
      key: "DecodeCSV_o17"
      value: "DecodeCSV:output:17"
    }
    ret {
      key: "DecodeCSV_o18"
      value: "DecodeCSV:output:18"
    }
    ret {
      key: "DecodeCSV_o19"
      value: "DecodeCSV:output:19"
    }
    ret {
      key: "DecodeCSV_o2"
      value: "DecodeCSV:output:2"
    }
    ret {
      key: "DecodeCSV_o20"
      value: "DecodeCSV:output:20"
    }
    ret {
      key: "DecodeCSV_o3"
      value: "DecodeCSV:output:3"
    }
    ret {
      key: "DecodeCSV_o4"
      value: "DecodeCSV:output:4"
    }
    ret {
      key: "DecodeCSV_o5"
      value: "DecodeCSV:output:5"
    }
    ret {
      key: "DecodeCSV_o6"
      value: "DecodeCSV:output:6"
    }
    ret {
      key: "DecodeCSV_o7"
      value: "DecodeCSV:output:7"
    }
    ret {
      key: "DecodeCSV_o8"
      value: "DecodeCSV:output:8"
    }
    ret {
      key: "DecodeCSV_o9"
      value: "DecodeCSV:output:9"
    }
    ret {
      key: "Equal"
      value: "Equal:z:0"
    }
  }
  function {
    signature {
      name: "_make_dataset_6e7d17be"
      output_arg {
        name: "BatchDataset"
        type: DT_VARIANT
      }
      is_stateful: true
    }
    node_def {
      name: "TextLineDataset/filenames"
      op: "Const"
      attr {
        key: "dtype"
        value {
          type: DT_STRING
        }
      }
      attr {
        key: "value"
        value {
          tensor {
            dtype: DT_STRING
            tensor_shape {
            }
            string_val: "c:\\\\_dev\\\\models\\\\official\\\\wide_deep_customer\\\\data\\\\cust.data"
          }
        }
      }
    }
    node_def {
      name: "TextLineDataset/compression_type"
      op: "Const"
      attr {
        key: "dtype"
        value {
          type: DT_STRING
        }
      }
      attr {
        key: "value"
        value {
          tensor {
            dtype: DT_STRING
            tensor_shape {
            }
            string_val: ""
          }
        }
      }
    }
    node_def {
      name: "TextLineDataset/buffer_size"
      op: "Const"
      attr {
        key: "dtype"
        value {
          type: DT_INT64
        }
      }
      attr {
        key: "value"
        value {
          tensor {
            dtype: DT_INT64
            tensor_shape {
            }
            int64_val: 262144
          }
        }
      }
    }
    node_def {
      name: "TextLineDataset"
      op: "TextLineDataset"
      input: "TextLineDataset/filenames:output:0"
      input: "TextLineDataset/compression_type:output:0"
      input: "TextLineDataset/buffer_size:output:0"
    }
    node_def {
      name: "ShuffleDataset/buffer_size_1"
      op: "Const"
      attr {
        key: "dtype"
        value {
          type: DT_INT64
        }
      }
      attr {
        key: "value"
        value {
          tensor {
            dtype: DT_INT64
            tensor_shape {
            }
            int64_val: 32561
          }
        }
      }
    }
    node_def {
      name: "ShuffleDataset/seed"
      op: "Const"
      attr {
        key: "dtype"
        value {
          type: DT_INT64
        }
      }
      attr {
        key: "value"
        value {
          tensor {
            dtype: DT_INT64
            tensor_shape {
            }
            int64_val: 0
          }
        }
      }
    }
    node_def {
      name: "ShuffleDataset/seed2"
      op: "Const"
      attr {
        key: "dtype"
        value {
          type: DT_INT64
        }
      }
      attr {
        key: "value"
        value {
          tensor {
            dtype: DT_INT64
            tensor_shape {
            }
            int64_val: 0
          }
        }
      }
    }
    node_def {
      name: "ShuffleDataset"
      op: "ShuffleDataset"
      input: "TextLineDataset:handle:0"
      input: "ShuffleDataset/buffer_size_1:output:0"
      input: "ShuffleDataset/seed:output:0"
      input: "ShuffleDataset/seed2:output:0"
      attr {
        key: "output_shapes"
        value {
          list {
            shape {
            }
          }
        }
      }
      attr {
        key: "output_types"
        value {
          list {
            type: DT_STRING
          }
        }
      }
      attr {
        key: "reshuffle_each_iteration"
        value {
          b: true
        }
      }
    }
    node_def {
      name: "ParallelMapDataset/num_parallel_calls"
      op: "Const"
      attr {
        key: "dtype"
        value {
          type: DT_INT32
        }
      }
      attr {
        key: "value"
        value {
          tensor {
            dtype: DT_INT32
            tensor_shape {
            }
            int_val: 5
          }
        }
      }
    }
    node_def {
      name: "ParallelMapDataset"
      op: "ParallelMapDataset"
      input: "ShuffleDataset:handle:0"
      input: "ParallelMapDataset/num_parallel_calls:output:0"
      attr {
        key: "Targuments"
        value {
          list {
          }
        }
      }
      attr {
        key: "f"
        value {
          func {
            name: "tf_map_func_ac42d421"
          }
        }
      }
      attr {
        key: "output_shapes"
        value {
          list {
            shape {
            }
            shape {
            }
            shape {
            }
            shape {
            }
            shape {
            }
            shape {
            }
            shape {
            }
            shape {
            }
            shape {
            }
            shape {
            }
            shape {
            }
            shape {
            }
            shape {
            }
            shape {
            }
            shape {
            }
            shape {
            }
            shape {
            }
            shape {
            }
            shape {
            }
            shape {
            }
            shape {
            }
            shape {
            }
          }
        }
      }
      attr {
        key: "output_types"
        value {
          list {
            type: DT_STRING
            type: DT_INT32
            type: DT_INT32
            type: DT_STRING
            type: DT_STRING
            type: DT_STRING
            type: DT_INT32
            type: DT_INT32
            type: DT_STRING
            type: DT_INT32
            type: DT_INT32
            type: DT_INT32
            type: DT_STRING
            type: DT_STRING
            type: DT_STRING
            type: DT_INT32
            type: DT_STRING
            type: DT_INT32
            type: DT_STRING
            type: DT_INT32
            type: DT_INT32
            type: DT_BOOL
          }
        }
      }
    }
    node_def {
      name: "RepeatDataset/count"
      op: "Const"
      attr {
        key: "dtype"
        value {
          type: DT_INT64
        }
      }
      attr {
        key: "value"
        value {
          tensor {
            dtype: DT_INT64
            tensor_shape {
            }
            int64_val: 2
          }
        }
      }
    }
    node_def {
      name: "RepeatDataset"
      op: "RepeatDataset"
      input: "ParallelMapDataset:handle:0"
      input: "RepeatDataset/count:output:0"
      attr {
        key: "output_shapes"
        value {
          list {
            shape {
            }
            shape {
            }
            shape {
            }
            shape {
            }
            shape {
            }
            shape {
            }
            shape {
            }
            shape {
            }
            shape {
            }
            shape {
            }
            shape {
            }
            shape {
            }
            shape {
            }
            shape {
            }
            shape {
            }
            shape {
            }
            shape {
            }
            shape {
            }
            shape {
            }
            shape {
            }
            shape {
            }
            shape {
            }
          }
        }
      }
      attr {
        key: "output_types"
        value {
          list {
            type: DT_STRING
            type: DT_INT32
            type: DT_INT32
            type: DT_STRING
            type: DT_STRING
            type: DT_STRING
            type: DT_INT32
            type: DT_INT32
            type: DT_STRING
            type: DT_INT32
            type: DT_INT32
            type: DT_INT32
            type: DT_STRING
            type: DT_STRING
            type: DT_STRING
            type: DT_INT32
            type: DT_STRING
            type: DT_INT32
            type: DT_STRING
            type: DT_INT32
            type: DT_INT32
            type: DT_BOOL
          }
        }
      }
    }
    node_def {
      name: "BatchDataset/batch_size"
      op: "Const"
      attr {
        key: "dtype"
        value {
          type: DT_INT64
        }
      }
      attr {
        key: "value"
        value {
          tensor {
            dtype: DT_INT64
            tensor_shape {
            }
            int64_val: 40
          }
        }
      }
    }
    node_def {
      name: "BatchDataset"
      op: "BatchDataset"
      input: "RepeatDataset:handle:0"
      input: "BatchDataset/batch_size:output:0"
      attr {
        key: "output_shapes"
        value {
          list {
            shape {
              dim {
                size: -1
              }
            }
            shape {
              dim {
                size: -1
              }
            }
            shape {
              dim {
                size: -1
              }
            }
            shape {
              dim {
                size: -1
              }
            }
            shape {
              dim {
                size: -1
              }
            }
            shape {
              dim {
                size: -1
              }
            }
            shape {
              dim {
                size: -1
              }
            }
            shape {
              dim {
                size: -1
              }
            }
            shape {
              dim {
                size: -1
              }
            }
            shape {
              dim {
                size: -1
              }
            }
            shape {
              dim {
                size: -1
              }
            }
            shape {
              dim {
                size: -1
              }
            }
            shape {
              dim {
                size: -1
              }
            }
            shape {
              dim {
                size: -1
              }
            }
            shape {
              dim {
                size: -1
              }
            }
            shape {
              dim {
                size: -1
              }
            }
            shape {
              dim {
                size: -1
              }
            }
            shape {
              dim {
                size: -1
              }
            }
            shape {
              dim {
                size: -1
              }
            }
            shape {
              dim {
                size: -1
              }
            }
            shape {
              dim {
                size: -1
              }
            }
            shape {
              dim {
                size: -1
              }
            }
          }
        }
      }
      attr {
        key: "output_types"
        value {
          list {
            type: DT_STRING
            type: DT_INT32
            type: DT_INT32
            type: DT_STRING
            type: DT_STRING
            type: DT_STRING
            type: DT_INT32
            type: DT_INT32
            type: DT_STRING
            type: DT_INT32
            type: DT_INT32
            type: DT_INT32
            type: DT_STRING
            type: DT_STRING
            type: DT_STRING
            type: DT_INT32
            type: DT_STRING
            type: DT_INT32
            type: DT_STRING
            type: DT_INT32
            type: DT_INT32
            type: DT_BOOL
          }
        }
      }
    }
    ret {
      key: "BatchDataset"
      value: "BatchDataset:handle:0"
    }
  }
}
versions {
  producer: 24
  min_consumer: 12
}
